best_model_weights.pth (torch, 63986 bytes, 37 tensors)

transformer_encoder.layers.0.self_attn.in_proj_weight f4 [57, 19]
000000 01 16 c8 3e f6 d8 63 bd 30 01 8e 3e 4f 2a b3 be
       0.39079288 -0.055626832 0.2773528 -0.34993216
000010 06 9d 90 3c 19 e8 a6 bd 48 91 fa 3b 9c a2 4a bd
       0.017653 -0.08149738 0.0076467134 -0.049471483
000020 29 bf 9e be d4 82 2f bf 9e 2d f5 ba 9b 15 49 3e
       -0.3100522 -0.68559 -0.0018705612 0.19637148
000030 e0 36 d6 3d 6f 7a 13 3e 22 8a 26 be b8 5a 92 bd
       0.10459685 0.14402173 -0.16263631 -0.071462095
000040 6e b4 9f be 45 8a 80 be 3f 8d f1 3d 1c a4 a1 3e
       -0.31192344 -0.2510549 0.11794519 0.31570518
000050 29 ac 0a 3d 90 b9 13 be 8c d1 96 be 99 ce fe be
       0.03385559 -0.14426255 -0.29456747 -0.49766997
000060 59 61 d5 3c d4 7d d8 be bc 39 ff bd 9e 62 91 be
       0.026047396 -0.422835 -0.12462184 -0.2839555
000070 97 38 3d be 84 fc 60 be c7 07 99 be 87 8c ae 3c
       -0.18478619 -0.21971327 -0.29888746 0.021307243
000080 d3 a5 ac 3e 2c 09 49 be e5 19 3b 3e 1d 6d 8b 3d
       0.33720264 -0.19632405 0.18271597 0.06807921
000090 7e 61 db bd 44 b4 36 be a3 51 45 be 9d 15 12 3e
       -0.107119545 -0.17842203 -0.19269423 0.14266057
0000a0 fe b5 b7 be 07 30 12 3e 7e 1b 2a be f1 d4 0e 3f
       -0.35881037 0.14276133 -0.1661205 0.5579367
0000b0 60 36 f0 3d ec d7 d2 3e c7 b8 56 3e 9d 05 37 be
       0.11729121 0.4118036 0.20968924 -0.17873235
0000c0 2e f9 60 bd ef 7e 6f 3e a1 36 6b 3e 1c 81 30 3e
       -0.054925136 0.23388265 0.22970058 0.17236751
0000d0 80 dd 6e bd 5b ce 3b 3e 61 4b 9a 3e 80 42 7e be
       -0.058316708 0.18340437 0.30135635 -0.24830055
0000e0 10 23 ed be 98 d7 a2 be 99 e5 cb 3d 19 7c 0b 3f
       -0.46315813 -0.3180511 0.09955902 0.54486233
0000f0 35 b6 e4 3d 54 09 97 3e 15 e1 6d be 02 74 91 3e
       0.11167566 0.29499304 -0.23230393 0.2840882
000100 32 a3 07 bf 99 4a 96 3e cf ab 99 be 93 de 72 3f
       -0.5298339 0.29353788 -0.30013892 0.9487087
000110 84 b2 d9 3e 38 3f 86 3e 11 41 78 bd c0 0d 3b 3e
       0.4251901 0.26220107 -0.060608927 0.18266964
000120 0c 04 72 3e 80 84 fe bd 49 b3 f1 3e 3d fa 1e 3c
       0.23634356 -0.12427616 0.47207096 0.009703216
000130 0c 71 8c bd c3 03 e0 3c 58 b3 ad 3e e9 83 08 be
       -0.068574995 0.027345544 0.3392589 -0.1333157
000140 f9 e5 0c 3f c7 5d 27 bd f4 ff bf 3d c7 e0 3f bc
       0.5503841 -0.040860917 0.09374991 -0.011711306
000150 be f6 34 bf cb 72 36 be ef 46 01 3e 97 92 89 3e
       -0.70689 -0.17817228 0.12624715 0.26869652
000160 bb a9 8a 3c a1 53 cc be 6e 59 0b 3e 03 af a2 3c
       0.016926637 -0.39907554 0.13608333 0.019858843
000170 b7 aa 70 3e 24 30 c0 be 81 ee e9 3e 78 63 96 3d
       0.23502623 -0.37536728 0.45689777 0.07343191
000180 ce eb 67 bd a2 51 5a be d7 af 31 3d 2e b1 7b 3f
       -0.056621365 -0.21320203 0.043380585 0.9831723
000190 b2 88 7a be 06 ea 05 be 68 04 18 bf 1f 6d 1a 3f
       -0.24466208 -0.13077554 -0.59381723 0.60322756
0001a0 0c 9b 34 be b1 a0 1f 3e b0 90 9e 3e 0a a9 89 be
       -0.1763727 0.15588643 0.30969763 -0.2688678
0001b0 66 43 b4 3b 4e 22 70 3e e3 7e b0 3d b6 9b 18 bf
       0.0055011986 0.23450586 0.08617952 -0.59612596
0001c0 cf 1b 0b 3e 72 4f 08 be c2 bc 18 bd e4 7c ec 3d
       0.13584827 -0.13311556 -0.03728939 0.115472585
0001d0 73 23 89 bd 18 96 f0 be 8b 6c 25 be 2a 63 09 3f
       -0.066962145 -0.46989512 -0.16154687 0.5366694
0001e0 11 46 10 be 1f 77 9d 3e 45 b4 a8 be f8 f3 07 3c
       -0.14089228 0.30754945 -0.32950035 0.008297913
0001f0 74 2e c1 3e 8c cf 15 3f e9 fb 1c 3e 4e 1c 0f bf
       0.37730753 0.58519816 0.15330471 -0.55902565
000200 a0 37 e6 3e a1 2f 1f 3e f9 e0 37 bf 67 56 f2 3e
       0.44964314 0.15545513 -0.71827656 0.47331545
000210 e3 d6 d3 be ea f8 af 3d 05 cb 8d be 49 5a 14 bf
       -0.41374883 0.085923985 -0.27693954 -0.57950264
000220 14 c6 12 3d 4d ce 83 3d ab 99 df be 96 a4 ac 3e
       0.035833433 0.06435833 -0.43671927 0.3371932
000230 9a 04 b1 bd a2 cb 76 3d 14 4a 81 3e 25 13 b1 3e
       -0.08643456 0.060252793 0.2525183 0.3458492
000240 ef 94 b5 bd f8 d5 d2 be 42 4e 9f bc 4e ed 78 be
       -0.088662975 -0.4117887 -0.019446496 -0.24309275
000250 80 aa 68 3e 31 9f 89 3e 6d cf 35 bd 6b ce d9 3c
       0.2272129 0.26879266 -0.04438727 0.026587686
000260 3a 6c 34 3e d2 ee 3b 3e 40 25 b8 bd b2 50 6d be
       0.1761941 0.18352821 -0.0899148 -0.23175314
000270 2e 16 48 bd 2c 42 8b be 74 8f cf 3d 0b f5 89 3e
       -0.048849277 -0.27198923 0.101347834 0.26944765
000280 d6 ed f7 3c 88 4a b5 be 49 fe 92 be 91 c3 00 3f
       0.030264776 -0.35408425 -0.2870963 0.5029841
000290 d5 ed 14 bf 66 e0 85 3d ba 90 a5 bd 63 d2 e8 3d
       -0.581754 0.06536941 -0.08084245 0.11368253
0002a0 f9 ca ee 3e 5e 41 2f be e5 e4 fa bd 37 6d a6 3e
       0.4663923 -0.1711478 -0.122506894 0.325052
0002b0 39 a9 a2 3d f9 ae 43 3e 1c 55 6c be 0e d8 2b bf
       0.07942433 0.19109716 -0.23079342 -0.6712655
0002c0 18 e1 c7 3e 50 4b 0c be 56 5f 1c bf 04 11 4d bf
       0.3903892 -0.13700604 -0.6108297 -0.8010409
0002d0 af 2e 38 3e 8f 54 2d 3f ca 1e 05 3e 54 5f 22 3f
       0.17986558 0.6770715 0.13000026 0.6342671
0002e0 a9 bc 5f be bd 87 b6 bd b2 3c 0d bf ff 4c ee be
       -0.21849312 -0.08912609 -0.5517074 -0.46543118
0002f0 60 8e 34 be 25 99 79 be 5a be 4c be 81 91 fa bc
       -0.17632437 -0.24374826 -0.19994488 -0.03058696
000300 ff 3e 47 be 1c ae 24 3f 92 e0 f2 3b cd f3 55 3e
       -0.19457625 0.6432817 0.007412025 0.20893784
000310 ea 71 3b bd 31 0d ae 3d 86 8d a6 3e 49 4e bc 3e
       -0.045762934 0.0849861 0.3252985 0.36778477
000320 4d 9f 6d 3e 90 00 61 3e 04 a4 35 3d 5b fc 8f 3e
       0.232053 0.21972871 0.04434587 0.2812222
000330 17 65 80 bd 7f 63 ad be db bd 1f bd 07 9e 51 be
       -0.06269281 -0.33864972 -0.03899942 -0.20470439
000340 58 1a a3 be 9b ef f0 be 1b 4b 8d 3e dc 6a d0 3e
       -0.31856036 -0.47057804 0.27596363 0.40706527
000350 fd 96 2a 3e e2 92 ea be c9 33 00 bd 1f 1b 9b bd
       0.1665916 -0.45815188 -0.031299386 -0.07573532
000360 fe 55 72 be af 54 9e 3e ac 74 fd 3e 8b 3d a4 3e
       -0.23665616 0.30923983 0.49503076 0.32078204
000370 2e 99 6a 3d d9 d6 d3 3e d2 6b 13 3e 5a 18 8f 3e
       0.05727499 0.41374853 0.14396599 0.27948266
000380 01 ed 37 be 7c 71 9a be 9d ef a5 3e 19 c2 4e 3e
       -0.17961504 -0.30164707 0.32409373 0.2019123
000390 67 ef e9 3d 3e a9 84 3c 4e 52 d8 3e 0b 8c de be
       0.114226155 0.016193982 0.42250293 -0.4346622
0003a0 e0 d2 1e bf 6d d5 7c 3e e8 37 a9 3c 8b a9 15 bf
       -0.6204052 0.2469079 0.020656541 -0.5846183
0003b0 9b 14 ca 3d ed f4 00 be 3c c6 82 3d c0 7c 78 3d
       0.098672114 -0.12593432 0.063854665 0.060665846
0003c0 7e ab d0 3e 56 dc 73 3c f4 20 96 3e c3 4e 00 be
       0.40755838 0.014884075 0.29322016 -0.12530045
0003d0 b5 93 b1 bd e2 42 59 be 09 b7 8c be dd 2e 1f be
       -0.08670751 -0.2121692 -0.27483395 -0.1554522
0003e0 9a 30 11 bf fe 23 31 bc 24 eb 28 be 4c cf 34 3f
       -0.56714785 -0.010811804 -0.16495949 0.7062881
0003f0 9d 1d 26 3f 91 31 e4 3e 04 6d b0 3e aa a1 c5 be
       0.64888936 0.44569066 0.34458172 -0.38599902

transformer_encoder.layers.0.self_attn.in_proj_bias f4 [57]
000000 e6 01 05 bf 8c 1a c9 3e d1 d1 9c be 62 ce fd 3e
       -0.5195602 0.39278066 -0.30628827 0.4957152
000010 9c 0c 6f be 10 6b 7d 3d 7d f5 cc 3d 03 0e 63 bd
       -0.23344654 0.06186968 0.10007761 -0.055433284
000020 f3 17 91 3e 9d 79 a2 3d 59 fe 27 be 07 1f 9e 3e
       0.28338584 0.07933352 -0.1640562 0.30883047
000030 44 32 d5 3e 13 77 b9 be 8a d6 3a be 8f 21 d4 3e
       0.41639912 -0.3622366 -0.18245903 0.41431853
000040 d7 c7 ab 3d 4b 8f 11 3e 40 d1 67 3e 1d 20 33 c0
       0.08387726 0.14214818 0.22638416 -2.798835
000050 4f 27 68 3d f3 7f 10 40 3e e3 9f bf b4 32 3f 3f
       0.056678113 2.2578094 -1.2491224 0.7468674
000060 15 35 cb bf 12 ec 0a bf f7 ac 21 3f 64 f8 5e c0
       -1.5875574 -0.54266465 0.6315455 -3.4839106
000070 ee 5e 33 c0 ea 1f 24 40 77 37 5a 40 21 73 0f c0
       -2.802669 2.5644479 3.4096353 -2.241402
000080 4d 46 dd 3f c7 02 47 3f 69 ef 3a 40 d7 59 1a c0
       1.7287079 0.7773861 2.9208624 -2.4117334
000090 f7 25 26 40 3d 64 12 c0 c3 d7 b3 bb 3e 1b 30 bf
       2.5960672 -2.287368 -0.0054883673 -0.6879157
0000a0 fa d1 06 bf d0 36 f8 be fc cc 31 bf 06 57 d3 3d
       -0.5266415 -0.4847932 -0.69453406 0.10319333
0000b0 65 c0 d1 3e 64 d5 21 3f b1 ea 05 bf 58 ac bf be
       0.40967098 0.63216233 -0.52311236 -0.37436175
0000c0 62 a6 16 bf d6 93 24 3f b3 f2 1a bf e5 cb 03 bf
       -0.5884763 0.6428808 -0.6052658 -0.51482993
0000d0 c0 e3 af be c2 ad 1a bf 96 55 3e 3f 7d 5c c1 3c
       -0.34353447 -0.60421383 0.74349344 0.023603672
0000e0 cc 12 a1 be
       -0.31459653

transformer_encoder.layers.0.self_attn.out_proj.weight f4 [19, 19]
000000 f6 d9 b7 3c f8 42 81 be 04 86 77 3e 2b 46 5d be
       0.022442799 -0.25246406 0.24172217 -0.21608798
000010 fb 5a fe bc a1 68 2a 3e 35 7b 08 bd fa dd 05 3e
       -0.031049242 0.16641475 -0.033320624 0.13072959
000020 41 b1 26 3e 5c ed 01 3c 04 55 88 bd b0 ff b9 bc
       0.16278554 0.007930126 -0.066568404 -0.02270493
000030 bc 6c 42 bd 01 18 f6 bd 7e 64 99 3d ff 06 c1 3b
       -0.04746698 -0.12016297 0.074898705 0.0058907266
000040 b3 89 2d 3c f7 72 05 be d3 bd 00 3e 59 80 4d bd
       0.010591912 -0.13032137 0.12572412 -0.05017123
000050 59 6f a1 be 64 fe b2 be 78 3c 96 bd b5 3f 3e be
       -0.31530264 -0.3495971 -0.07335752 -0.1857899
000060 07 6d a6 bd cd 99 05 bd 18 79 f9 ba 12 01 39 be
       -0.08126264 -0.03261738 -0.0019033281 -0.18066815
000070 85 4f 22 bd 57 6c c4 bd 70 4f 27 3e 35 29 67 bd
       -0.039626617 -0.09590977 0.16338897 -0.056435782
000080 a9 3f 9d be 0d 7a c5 bc 63 5e 1c be 8c a7 00 3f
       -0.3071263 -0.02410605 -0.1527038 0.50255656
000090 1a 64 da 3c e3 6c 08 37 18 29 55 bd 87 20 c4 3e
       0.02665906 8.131584e-06 -0.052041143 0.38306066
0000a0 57 2f 9a 3e 06 42 6b 3e 01 d2 6a 3e 12 48 d8 3d
       0.30114242 0.22974405 0.22931673 0.10560621
0000b0 29 5d bd bd a9 90 da bd 07 d8 80 bc 32 89 a5 3c
       -0.092462845 -0.10672123 -0.01572801 0.020207021
0000c0 4b 98 84 3c 7f ef 05 be 4a 4b 50 3d 00 ea a6 3d
       0.0161859 -0.13079642 0.05085305 0.08150101
0000d0 55 d5 fa bb 5d 5b 94 3c fb 59 ae be e1 c3 c1 bd
       -0.0076548257 0.018109972 -0.34053025 -0.09461189
0000e0 fb 0f 91 3d 0e d8 17 bc e1 d5 9c 3d 80 1b 82 bd
       0.07083126 -0.00926782 0.07657982 -0.063529015
0000f0 f2 a4 e4 bd 73 a0 09 3d d9 a7 f5 bb f9 c0 09 3c
       -0.11164273 0.033600282 -0.0074968156 0.008407825
000100 a5 3f 95 3b 37 f1 3c 3d e3 f4 41 3b ca b5 2c bd
       0.004554706 0.046128478 0.0029595427 -0.042165555
000110 c7 34 57 bd 70 ed 8a bc a6 ff 03 3e 27 e5 1d bd
       -0.052540567 -0.016958922 0.12890491 -0.038548615
000120 d6 d2 a4 bc fc 0e df bd d8 6d 19 bc e2 06 dc 3b
       -0.020120066 -0.1089153 -0.009364568 0.0067146877
000130 39 5d 4e 3d 64 f4 49 3d 1f bf ad bd b0 54 79 3b
       0.050381873 0.049305335 -0.08483719 0.0038044862
000140 8e 3f ad 3c 6f 8c 87 bd 3f f8 9b bc 52 79 ad 3a
       0.02114847 -0.066185825 -0.019039271 0.0013235009
000150 8b 82 00 3d 7a 41 6d 3c 56 9b 8d bd 10 cf 12 bc
       0.031374495 0.014480943 -0.069143936 -0.0089605
000160 6e 17 8a bd 8c 5e 39 3e 8d a1 1b 3d f2 f2 b2 3d
       -0.0674275 0.18102473 0.037995864 0.087377444
000170 58 be 11 bd cd 8c 13 3e 92 62 a2 bc 5a d1 ce bb
       -0.035581917 0.1440918 -0.019822393 -0.0063115777
000180 5c 19 15 3d f9 bf b9 ba 6e 87 db 3c 24 b7 33 bd
       0.036401138 -0.0014171592 0.026797976 -0.04387583
000190 dd 9d 91 bd 1f 44 c9 bb 8c 8f 7b bd 67 4a 90 bd
       -0.07110188 -0.006142154 -0.061416194 -0.07045441
0001a0 ba 6a 0c 3b b5 af 71 bc 0c 15 aa bd 8e e4 5b bc
       0.0021425919 -0.0147513645 -0.083047956 -0.013421191
0001b0 b8 0f 26 3e 66 4e 01 bd d7 c1 ae bd b6 1e ca bd
       0.16216934 -0.031568907 -0.08533066 -0.09869139
0001c0 6a 94 09 3d 53 3d da 3c f7 2b 75 bd 00 26 8f 3d
       0.033588804 0.02664057 -0.05985638 0.0698967
0001d0 84 4b 88 bd a3 df 01 3d b2 fd 4c 3d 8e b9 ee bc
       -0.066550285 0.031707417 0.05004663 -0.029141214
0001e0 24 8b 2c 3c 8b 9a a6 39 f3 d6 a4 3b e8 77 63 3d
       0.010531221 0.0003177713 0.0050305068 0.055534273
0001f0 44 3c 81 bb 5d b7 9c 3d 60 51 ac bc 20 8f 5a bc
       -0.003943952 0.07652161 -0.021034896 -0.013339788
000200 69 ed 46 3d ef 9f d4 3c 3e e1 7b bc 02 ab 55 3d
       0.048566256 0.025955169 -0.015373526 0.05216504
000210 e8 46 ad 3c 80 80 92 3d 96 d2 b3 bd f3 bf 3e 3e
       0.021151975 0.07153416 -0.087804005 0.1862791
000220 b5 99 17 3e 65 c8 08 be 00 61 2d bc aa 4d 13 3e
       0.14804728 -0.13357694 -0.010582209 0.14385095
000230 5e 49 20 bd 2f b5 a7 3d c6 c5 c9 3c b6 24 97 bd
       -0.03913247 0.08188855 0.024630439 -0.07380049
000240 4f 81 3c 3e a7 13 40 be 1f ac ed bc 44 c5 40 bd
       0.18408702 -0.18757497 -0.029012738 -0.047063127
000250 9d 9a b8 bd 22 6f 8f 3e cf 3d 38 bc e1 86 5b 3d
       -0.09013865 0.28014475 -0.011245205 0.053595427
000260 df 71 81 bd 9c a8 46 3e ca 5a b6 bd 37 3e bb bd
       -0.06320547 0.19400257 -0.089040354 -0.09142726
000270 24 ea 7a bd 46 0e 5c 3c 9e dd 70 3c 7a 63 ea bd
       -0.06125845 0.013431137 0.014701275 -0.11444755
000280 17 64 29 bc 55 ca 17 bd 9c 2c 37 3d 79 d2 0c be
       -0.010338805 -0.037058193 0.044720277 -0.13752164
000290 8d 48 19 3e 78 14 3b 3d 63 43 01 be 23 4a fc bd
       0.14969082 0.045673817 -0.12623362 -0.12318828
0002a0 bb e0 36 be d5 51 16 bd 32 21 ac bd 35 c9 43 bd
       -0.17859165 -0.036699135 -0.08404769 -0.047799308
0002b0 f6 c0 9c bd 7d 58 74 3e 54 cf 96 bc b1 bb 14 bd
       -0.07653992 0.2386188 -0.018409409 -0.03631181
0002c0 56 f9 0c 3e 1d 9c ea 3c 51 a8 5e bd 7c 6a c0 bd
       0.13766989 0.028638894 -0.054359738 -0.0939531
0002d0 70 be 1b bd 39 4d 3f 3d 45 9f a9 bd a7 30 92 bd
       -0.038023412 0.046704505 -0.082823314 -0.07138186
0002e0 f6 9d 83 be a3 fd 3f be bb a7 1f bd 9b 6a 38 3e
       -0.25706452 -0.18749098 -0.03897832 0.18009417
0002f0 4c 6d ab bd 73 33 c5 bd c2 87 8e 3d 70 e4 6b 3e
       -0.08370456 -0.09628954 0.069594875 0.2303636
000300 75 7f 6b be 37 ad ce 3c 43 4e 52 3d 7e b9 b6 3c
       -0.2299784 0.02522908 0.051344167 0.022305246
000310 ed 03 e0 bc 22 6d 03 3b 49 4b 0c 3e 8e ef 35 bc
       -0.027345622 0.0020054062 0.13700594 -0.011104478
000320 71 61 69 bd 83 52 03 3e 67 11 f3 3c 9f 1c d8 3d
       -0.056977693 0.12824444 0.029671384 0.10552334
000330 4d 59 67 3d 77 56 29 3e 0b 0e 3a be 2b 50 8e 3d
       0.05648165 0.1653689 -0.1816942 0.069488846
000340 17 0a ae bb f5 44 1f 3d c5 a5 b7 bd e7 6c f4 3b
       -0.0053112614 0.038884122 -0.08967165 0.0074592712
000350 73 a8 1b bd 9f db a0 3d 1a ca 90 3d 7f 65 05 be
       -0.038002443 0.078543894 0.07069798 -0.13026999
000360 cb c4 38 3d 16 8b ae bd 73 f3 cd ba 5b 11 0b bd
       0.04510955 -0.08522622 -0.0015712812 -0.0339521
000370 ac 57 41 3d d1 60 e3 bd 09 fb f3 bd b3 8b d2 3d
       0.04720275 -0.11102451 -0.119131155 0.10280552
000380 7f 29 91 bd f9 68 37 bc e0 34 7a 3d f2 65 f3 3c
       -0.07087993 -0.011194461 0.06108558 0.029711697
000390 ed e9 f1 bd 0a 4f 13 3f d0 e3 04 3f b7 cb 98 3e
       -0.11812196 0.5754248 0.51910114 0.29842922
0003a0 88 32 b1 3e 69 81 66 3b 16 9d 8a bc 45 5e 17 bc
       0.34608865 0.003517235 -0.016920608 -0.009238784
0003b0 e2 73 eb 3d d1 aa c4 3d de 0c 9e 3e de dd 50 be
       0.11496712 0.09602893 0.30869192 -0.20397136
0003c0 44 9c 89 bb f2 21 30 3e 2d 25 d4 3d f8 49 3a 3e
       -0.0041995365 0.17200449 0.10358653 0.1819228
0003d0 dd 9f f6 be 72 39 0d be f7 e7 19 be 55 f7 2c bd
       -0.4816884 -0.13791445 -0.15029894 -0.04222806
0003e0 ce c9 0e be 63 e8 bf 3d a6 18 c5 3d da 81 7e be
       -0.1394417 0.09370496 0.09623842 -0.24854222
0003f0 64 5a 21 3e 92 2f a0 3d 51 69 13 3d c0 6a f6 3d
       0.15757138 0.07821573 0.03598911 0.1203208

transformer_encoder.layers.0.self_attn.out_proj.bias f4 [19]
000000 5a 40 62 bf 0e d1 79 3e cc 69 3d be f0 ed 9e bc
       -0.8837944 0.24396154 -0.1849739 -0.019400567
000010 d9 4c 90 3e 10 74 03 3e 15 51 27 3e 29 63 a1 bd
       0.2818363 0.12837243 0.16339524 -0.078802414
000020 f5 d2 ad 3d 4f 8e aa be 63 0c 60 3e 4b 48 26 bd
       0.084875025 -0.33311698 0.21879725 -0.040596288
000030 fb 1b 0b be e8 74 b6 bd 06 ae 3e 3c 94 e5 67 be
       -0.13584892 -0.08909017 0.01163817 -0.22646171
000040 08 2e 28 be 05 7c 4d 3e f7 44 9b 3e
       -0.1642381 0.20066841 0.30326054

transformer_encoder.layers.0.linear1.weight f4 [64, 19]
000000 07 26 ad be 48 57 1d bd 06 44 56 3e 24 98 9f 3e
       -0.33818075 -0.038413316 0.20924386 0.31170762
000010 45 46 0c 3f 89 f1 5a 3f 4b cb ae 3e 04 9f df bd
       0.5479472 0.85524803 0.34139475 -0.10919002
000020 43 33 c5 3e 68 83 a6 be b6 8f 58 3f d4 9d 19 be
       0.38515672 -0.3252213 0.84594285 -0.15001613
000030 85 33 67 3e 82 7f eb 3e 0c 07 e8 3e 92 bf 26 bf
       0.22578247 0.45995718 0.45317876 -0.65136063
000040 60 ff d6 be cc 98 65 3e 9d f1 9a 3e 2f de 16 bf
       -0.4199171 0.22421569 0.3026246 -0.58932775
000050 2b 79 d1 3e e2 95 24 3e 2e 15 05 be 7e c6 d3 3d
       0.40912756 0.16072801 -0.1299636 0.10340594
000060 33 22 4b be 9d f0 ca 3e c5 c1 b8 3d d2 d6 f5 3e
       -0.19837265 0.39636698 0.090213336 0.48015457
000070 8b da 5d 3c 12 55 9b 3d 8d 27 36 3f 1a 45 70 3e
       0.013540874 0.07584585 0.711541 0.2346386
000080 75 24 2c be 3b a7 4c be b0 b4 39 3f 58 21 52 3d
       -0.16810782 -0.19985668 0.7254133 0.05130133
000090 0d 70 80 3e 38 42 31 3e 4a 1f 1e bf 3a 39 96 3e
       0.25085488 0.17310417 -0.61766493 0.29340535
0000a0 d3 7f e3 3d d8 4d f4 3e 24 38 40 3d ea 42 f6 3c
       0.11108365 0.4771564 0.04692854 0.030061204
0000b0 e5 b9 dd be fa c5 8c 3e 3d 8e 62 3e 26 36 20 3f
       -0.4330589 0.27494794 0.22124572 0.62582624
0000c0 b7 6a 9f 3d 41 69 20 bf 3e 8c 29 3e 84 54 69 3e
       0.07784026 -0.62660605 0.16557404 0.22786146
0000d0 33 1b 97 3f 99 05 b5 bb ef ab f4 3e 8b 0f 96 3e
       1.1805176 -0.005524349 0.47787425 0.29308733
0000e0 7f af 74 3e 13 30 fa be 62 04 4d 3e aa 64 8b 3e
       0.23895071 -0.48864803 0.20021203 0.27225238
0000f0 fd 8d 01 be fb 5b 41 3f 94 58 00 3f 95 70 29 3f
       -0.1265182 0.75530976 0.5013516 0.6618741
000100 08 ad d2 3d cf d0 2f bd 7b 22 b7 3d 1a ac d0 3e
       0.10286909 -0.042923745 0.089421235 0.40756303
000110 52 6a 0b bf 69 1e 21 3f f5 23 12 3e 7d 55 1d 3e
       -0.54459107 0.6293703 0.14271529 0.15364642
000120 db 1c e9 be 1d 56 df be db df 17 3e 13 0d 8a 3e
       -0.45529827 -0.43620387 0.14831488 0.269631
000130 eb c0 a4 be d6 43 1c 3f 1d 4f 9b bd 6e c9 89 3d
       -0.32178435 0.6104101 -0.07583449 0.06727873
000140 d9 4a b4 3e 0b 5d 10 3e f3 19 9f bd 03 be cb 3e
       0.35213354 0.14097993 -0.07768621 0.39793405
000150 41 4c 9c be 30 c5 3d 3e 0c 35 b9 be 89 ed 72 3f
       -0.30526927 0.18532252 -0.36173284 0.948937
000160 9a 27 52 bd e9 22 85 be 95 8b 30 3f 63 ec 4a bd
       -0.0513073 -0.26003197 0.68962985 -0.049541842
000170 71 91 a1 be 5e 39 4c 3f 95 07 a4 3e 01 58 16 be
       -0.31556275 0.79775035 0.32037035 -0.14682008
000180 b7 b2 18 3f 22 ab 26 be 21 60 03 bc d2 bd 33 3f
       0.596477 -0.1627622 -0.008018524 0.7021152
000190 d7 71 83 bd 1f f4 f3 be c4 06 9b 3e 7a b6 7c 3e
       -0.064181976 -0.47647187 0.302786 0.24678984
0001a0 11 08 92 be 22 8c ed 3d 4e 3c e1 be c9 12 14 be
       -0.2852178 0.11598994 -0.4399132 -0.14460291
0001b0 bb 00 05 3d 22 2a c1 be 5c ec 6c be 91 f5 90 bd
       0.0324714 -0.37727457 -0.23137039 -0.07078088
0001c0 f6 73 d8 3e 23 ac cb 3e d6 53 39 be 86 2c 52 bd
       0.4227597 0.39779767 -0.18098387 -0.051311992
0001d0 d5 fd 6e 3c 5e 0a 53 bd 80 05 2b 3f ae a6 0d 3f
       0.014586885 -0.05152356 0.6680527 0.5533246
0001e0 fd fa f2 bd a7 29 1f 3e 60 27 83 3e c8 e1 c0 be
       -0.118642785 0.15543233 0.25615978 -0.37672257
0001f0 1d 60 dc 3e 3a c9 bb be 06 16 04 be ce 66 b1 3c
       0.4304208 -0.3667696 -0.12899026 0.021655466
000200 6a 6f 6b 3c 33 64 f4 be 7c 63 e6 bd 0d 52 36 bc
       0.014369825 -0.47732696 -0.11249444 -0.011127961
000210 8c 56 b1 be ca 49 e7 3c 2c 6d 87 3e 46 63 cd 3e
       -0.34636343 0.028233428 0.2645048 0.40114802
000220 af e9 82 3e 17 56 3e 3f b0 46 d3 3e 70 25 e2 bb
       0.2556891 0.7435011 0.41264868 -0.0069014356
000230 d0 75 af 3d 19 7c cc 3e 87 65 ee be c1 65 1e 3e
       0.08567393 0.3993843 -0.46561834 0.15468504
000240 8a 79 5f be 8e 88 bf 3d c3 56 3d 3e 81 00 b4 be
       -0.21823707 0.093522176 0.18490128 -0.35156634
000250 14 78 bf be 97 70 f9 be d5 39 0a 3e 4f f9 77 3e
       -0.373963 -0.48718712 0.13498624 0.24216197
000260 4a 97 3b bf 97 7d 1a 3e cc e5 d0 be bd e1 f7 be
       -0.73277724 0.15086971 -0.4080032 -0.48414412
000270 10 51 fa 3d 90 d1 31 be 09 31 0e 3e 46 b3 46 3f
       0.12222493 -0.17365098 0.13885893 0.776173
000280 26 81 70 3e 08 cd e9 3e 1b 71 48 3d ac 04 0a bf
       0.23486766 0.4566424 0.04893599 -0.5391338
000290 fb 27 f0 bd c5 7f 8e 3e ab 58 e0 3e 9b 09 a2 3e
       -0.11726376 0.27831855 0.43817648 0.31647953
0002a0 0c b4 5d 3f d1 8c 0d 3f 31 48 8b 3f 11 01 23 be
       0.86602855 0.55292994 1.0881406 -0.15918376
0002b0 e6 95 bc 3e 53 b0 3e be e9 c8 f8 3d 94 f5 85 3e
       0.36833113 -0.1862195 0.121476956 0.26163924
0002c0 53 62 41 be a9 93 00 bf e4 40 7e 3e e2 d2 9a 3d
       -0.18885164 -0.5022531 0.24829441 0.07559754
0002d0 a1 8d 12 3e 08 ab d1 3e 48 de bb 3e 19 de 2f be
       0.1431184 0.409508 0.36693025 -0.17174567
0002e0 7a b0 df 3d 02 39 0f be cd 74 02 be d5 84 d6 be
       0.10922332 -0.1398659 -0.12739868 -0.41898218
0002f0 4a 90 f4 3e 53 87 4f 3f ef c1 04 bc bc 7f 65 3e
       0.47766334 0.81065863 -0.008102878 0.22412008
000300 02 be b8 3d 2e 51 b9 3d 6e 1b 4f 3e 5a c2 33 bf
       0.09020616 0.09048687 0.20225307 -0.7021843
000310 93 8e 07 3e 76 fc 3c 3e 07 59 bb 3e c0 dd 94 be
       0.13237981 0.18455681 0.3659136 -0.29075432
000320 a2 c1 85 3e ab e2 ad 3e 37 32 4f 3d d5 12 de 3e
       0.26124293 0.33961996 0.050584998 0.43373743
000330 ed cb 6f be 7b 22 3f 3d 23 c8 1f 3e c3 9d 20 3e
       -0.23417635 0.046663743 0.1560369 0.15685181
000340 e1 fa a8 3e d9 0f db bd 42 07 6b 3d e7 96 46 3d
       0.33003905 -0.10696382 0.05737997 0.048483755
000350 02 94 d3 bd d2 6f 61 bc 7f 0d 4a be 7b 91 0c be
       -0.103309646 -0.01375957 -0.19731711 -0.13727371
000360 55 70 50 3f ee c9 ac 3d e9 b3 8d 3d 19 65 d0 be
       0.81421405 0.084369525 0.06919081 -0.4070213
000370 8f 78 0f be 19 01 ac be 01 f6 5e bd 39 d0 17 bd
       -0.14010833 -0.33594587 -0.054433826 -0.03706381
000380 5b 5a 08 3f eb 55 18 3d 30 9e 33 3e 29 2b 4f 3e
       0.5326287 0.037191313 0.17540812 0.20231308
000390 04 46 25 bd bc de 4c 3e ad b8 b0 be 08 6d 3a be
       -0.040349975 0.20006841 -0.34515896 -0.18205655
0003a0 e0 af e1 3e 7a 8d b7 bb d7 a1 e4 be cf b8 1c 3e
       0.44079494 -0.005601582 -0.44654724 0.15304874
0003b0 9e 62 7a 3e 50 f3 00 3e e4 9f ba bc b9 10 28 3d
       0.24451682 0.12592816 -0.02278132 0.041031573
0003c0 89 ca 7e be 65 68 89 3d ac e0 ae be 4d ce 0e 3d
       -0.24881949 0.06709365 -0.34155786 0.034864713
0003d0 3a 08 a1 3e 17 2b d5 3d 44 31 94 3e a9 23 b5 bd
       0.3145159 0.10408609 0.28943837 -0.08844692
0003e0 65 f3 0e 3e 93 30 93 3d 75 e0 18 be d0 e9 5b 3f
       0.13960035 0.07186999 -0.14929374 0.85903645
0003f0 fb d7 5b 3e fa b6 a5 3e f7 d0 b3 be 2d 23 e2 be
       0.21469109 0.32366163 -0.35120365 -0.44167462

transformer_encoder.layers.0.linear1.bias f4 [64]
000000 1e 50 d9 3d ee 17 97 be 22 bd bc bd 0f 55 c3 bd
       0.10610984 -0.29510444 -0.09215762 -0.09537708
000010 63 e7 15 bf 40 25 71 be 64 0a 84 be f3 08 34 be
       -0.58556193 -0.23549366 -0.25789177 -0.17581539
000020 78 3f 78 be 9b 7b 26 be 89 8c a4 bd 06 88 27 be
       -0.24242961 -0.16258089 -0.080346175 -0.16360483
000030 46 19 6e be 22 96 e6 bc 6d 5e 59 3c 53 d5 e2 be
       -0.23251829 -0.02814776 0.013267142 -0.44303378
000040 bf 5f 65 be 55 94 72 bd e5 90 65 be 4a da 7a be
       -0.22399805 -0.05922349 -0.22418554 -0.24497333
000050 dd 58 c0 be 43 63 4d be 3e 7e 59 bc 9b 0e 10 bf
       -0.37567797 -0.20057397 -0.013274727 -0.56272286
000060 2f a0 bd be 16 ea 8a be 23 3e a6 be 51 ac 5f be
       -0.37036273 -0.27131718 -0.32469282 -0.21843077
000070 7d 72 60 be ab 07 dc be 73 ef 02 be 7a ec ac be
       -0.21918674 -0.429746 -0.12786655 -0.33774167
000080 51 ec 3f be 07 74 56 be 95 5a fe be ea e3 0f bf
       -0.18742491 -0.20942698 -0.49678484 -0.56207144
000090 71 e3 32 3d 7d 85 07 bd 58 e1 93 be 2f 8b 48 bd
       0.043673936 -0.03308629 -0.2888286 -0.04896086
0000a0 4f 0f 7f bd 51 c9 82 be e4 65 a4 be cc a0 95 be
       -0.06227046 -0.25544217 -0.32108986 -0.2922424
0000b0 8b 39 75 be 49 ef 21 bd 16 1d 28 be e3 cf 11 be
       -0.23947732 -0.03953484 -0.16417345 -0.14239459
0000c0 ec 04 57 39 a4 17 4a be f5 ea b2 bd ce 00 8f 3e
       0.00020505831 -0.1973558 -0.08736221 0.279303
0000d0 04 26 ed bd a1 c7 6a be ff 28 b9 be 6f a8 e0 bd
       -0.115795165 -0.22927715 -0.3616409 -0.10969626
0000e0 ef 90 26 be 81 64 a6 be 3a 63 3e 3c 5c 3f c2 bd
       -0.16266225 -0.32498553 0.011620337 -0.09484741
0000f0 6b 99 ab bd f9 42 8f be 6c 6b 7d be 4c 15 03 be
       -0.083788715 -0.27980784 -0.2474801 -0.12801093

transformer_encoder.layers.0.linear2.weight f4 [19, 64]
000000 eb 9e 10 be 3c 9b 20 40 e8 44 5c 3f 51 ca 38 be
       -0.14123122 2.5094748 0.8604264 -0.18045928
000010 9d 14 ac 3e 6e 35 ca bd 0e 51 05 3c bc 3e 27 bd
       0.33609477 -0.09873472 0.008137001 -0.040831313
000020 c3 12 89 bf 68 58 92 bd 8c 44 49 3d c1 18 c0 bd
       -1.0708851 -0.071457684 0.049137637 -0.093797214
000030 f5 29 d0 3d d8 aa 9f bd aa 13 35 be 20 88 37 3e
       0.10164253 -0.07796258 -0.17683282 0.17923021
000040 59 53 13 be 73 f2 4a be 75 e9 00 3f c3 65 0a be
       -0.14387263 -0.1981905 0.5035623 -0.13515382
000050 5d 29 b3 3c 3a 45 02 be 56 ac 6e bc c1 fc 65 3f
       0.02187031 -0.1272172 -0.014567455 0.89838797
000060 66 95 54 3e 20 d6 21 bd ac fd e5 bd d0 48 00 be
       0.20760116 -0.039510846 -0.11230025 -0.12527776
000070 11 7f 92 3d 79 18 65 bd de 4c a7 3d 46 18 c7 bd
       0.07153142 -0.055931542 0.08168958 -0.09721427
000080 58 22 fb bd cf ab 84 bb 27 9d 07 c0 da 05 c4 3d
       -0.1226241 -0.0040488015 -2.1189668 0.095714286
000090 dd df 7a be 45 63 7a bd e3 75 44 bf 9c 0b 84 3e
       -0.2449946 -0.061129827 -0.7674238 0.25790107
0000a0 8d 86 3d bc 3d 13 9c be 2d 1e ec 3f d4 a6 e2 3e
       -0.011567724 -0.30483428 1.8446709 0.44267905
0000b0 10 21 c7 be 18 f6 ed bc 73 26 87 bc d8 bd 31 3c
       -0.38892412 -0.02904801 -0.016497826 0.010848485
0000c0 fa d0 c8 3d 68 23 b3 bc f3 fa 1c bd 19 90 32 3f
       0.09805484 -0.021867469 -0.03832526 0.69751126
0000d0 07 64 86 3d aa f1 ac bd 50 4f 24 3c 9c 0a 68 bd
       0.065620475 -0.08444531 0.010028675 -0.056650743
0000e0 6d d5 2a bd 2b b1 52 bd ab 67 53 3d 91 a9 fc bc
       -0.041707445 -0.05143849 0.051612537 -0.030842574
0000f0 45 e7 87 bd 66 fb 05 3f 15 09 e0 3d bf 78 20 3c
       -0.06635908 0.5233673 0.10939232 0.009794413
000100 b3 f2 c2 3f c6 59 f9 bb 37 7c c2 3d 7a 75 a4 3e
       1.5230316 -0.007609579 0.09496348 0.32120878
000110 fb 7b a1 3c 01 d2 de bd 72 66 b3 3e d9 8e 06 3f
       0.019712439 -0.10879899 0.35039097 0.5256172
000120 3f bc ad bf ac 6b b8 3c a5 a3 1a be 70 c5 c5 3d
       -1.3573073 0.02251228 -0.15101488 0.09656799
000130 02 aa c4 3d 84 c4 9d bb 94 29 ef 3d 20 3c b0 3e
       0.09602739 -0.0048146863 0.11677852 0.34420872
000140 48 6e 15 3e 8e 41 5e 3c d8 14 94 3e c9 82 be 3e
       0.1459285 0.013565434 0.28922153 0.37209156
000150 cb 02 b2 bd 4c 6b cf bd 3b 41 29 be 41 88 00 c0
       -0.08691939 -0.10127887 -0.1652879 -2.0083163
000160 59 33 82 3d 92 fe ad be ad 99 df 3e 0e 6f b1 bd
       0.0635745 -0.33983284 0.43671933 -0.0866376
000170 7b 85 85 3e 06 41 13 3f c4 6a ad 3f f3 ea 54 3e
       0.260784 0.5752109 1.3548207 0.20792751
000180 ae 7d 9b be fe 2c c3 bd 25 7e b5 be ac 82 ac 3e
       -0.30369323 -0.09530066 -0.35447803 0.33693445
000190 56 94 cf 3f f2 0f 82 3e 89 99 3e be 2f cd 5b be
       1.6217144 0.2540279 -0.18613257 -0.2146499
0001a0 ab 70 27 be b2 e8 2e 3f 8e 09 62 bf 5b 9c c8 bc
       -0.16351573 0.68323815 -0.8829583 -0.024488619
0001b0 eb 9d 24 3f e7 38 52 be 1c 25 c5 bd ce fa 30 bc
       0.64303464 -0.20529519 -0.09626219 -0.010801984
0001c0 39 d0 61 3e 57 04 59 3d b7 28 ca 3d 6c a4 a9 be
       0.22052087 0.052982654 0.09871047 -0.33133256
0001d0 85 26 de 3e 6e 86 7a 3f d7 b3 a5 3e e8 b9 1e 3e
       0.43388763 0.97861373 0.3236377 0.15500605
0001e0 9c 95 3b 3d 8b d2 53 3c 20 e4 64 3d 22 25 a8 bd
       0.045796975 0.012928615 0.05588162 -0.082102075
0001f0 5a ee 8f 3c d7 52 2c 3f e5 95 04 bf 12 50 22 3e
       0.01756971 0.67313904 -0.5179122 0.15850857
000200 20 9b a5 bd 48 9f 3c bf da 59 79 3f 38 c5 62 3e
       -0.08086228 -0.73680544 0.9740273 0.22145545
000210 d3 a2 2a bf e5 12 89 3c f5 c9 d7 bd 42 05 08 be
       -0.666547 0.016732642 -0.10536567 -0.13283256
000220 f3 21 0b 3e 7d a9 95 bc dd b4 49 3c 86 a0 4f 3c
       0.1358717 -0.018269295 0.012311188 0.012672549
000230 00 8a 0e be 6a 34 1e be 05 f9 12 be 5d 3a 86 be
       -0.1391983 -0.15449682 -0.14352806 -0.26216403
000240 de a5 4a 3e 97 38 9e bd 53 af 9d bf 71 4e 07 bc
       0.19789836 -0.077256374 -1.231913 -0.008258448
000250 2f 71 82 3c 10 46 af 3e 31 3e 9b be 77 5e 97 bf
       0.01592311 0.3423314 -0.30320886 -1.1825703
000260 a3 79 c3 be a8 57 cf 3d 80 a3 2a 3d 8d f1 26 3e
       -0.3817874 0.10124141 0.041659832 0.16303082
000270 80 3b 62 bd d9 9b 94 bf 3b dd 37 bd 3f 2a 95 3e
       -0.055232525 -1.1610061 -0.044888716 0.29133794
000280 08 c9 90 3e ec 20 53 bd 7f b7 81 bf 46 e6 cc 3e
       0.28278375 -0.05154507 -1.0134124 0.40019435
000290 7f 10 89 be fc 09 1a be 6f 67 33 bf 4c 33 18 be
       -0.26770398 -0.15042871 -0.700797 -0.14863318
0002a0 3a 65 0e 3d 07 c4 c1 3e e4 eb 34 c0 f7 d5 da bd
       0.034764506 0.3784487 -2.8268976 -0.10685342
0002b0 77 2f 9b 3d 0e d4 f4 3d 0a c8 b5 bc 02 63 a0 be
       0.075774126 0.11954509 -0.022190113 -0.31325537
0002c0 7a 04 6a bf 7d 36 58 be 96 a9 31 3c 87 05 ef bf
       -0.9141308 -0.21114536 0.010843655 -1.8673562
0002d0 c4 68 f2 bd 33 44 92 3e e2 9f cd bd 20 fb b9 bc
       -0.11836389 0.28567657 -0.10040261 -0.022702754
0002e0 49 93 28 be 21 fb 31 be 35 9a af 3d 6f 7a be 3e
       -0.16462435 -0.17380954 0.085743345 0.37202784
0002f0 5d a5 83 3c b3 e0 bd be 91 40 81 3d a2 78 74 bd
       0.016070062 -0.37085494 0.06311143 -0.059685357
000300 ac 58 ad bd 3b 44 11 bf 9b 7e 65 3f 1f 2f fd bc
       -0.084641784 -0.56744736 0.8964631 -0.030906258
000310 5f da 39 be 87 40 48 be 24 cd 42 3c 43 56 05 bc
       -0.18149708 -0.19555865 0.01188973 -0.008138242
000320 b2 6a fe 3e 87 9b 0e 3e 03 32 ee bc ac 7d 82 3d
       0.49690777 0.13926516 -0.029076582 0.06371626
000330 55 f1 2e 3d 01 42 29 be 35 71 31 be 5d b5 c5 bd
       0.04271062 -0.16529085 -0.17328341 -0.09653733
000340 c4 db 70 be fa a0 27 be 24 8c 40 c0 c4 a5 79 bd
       -0.23521334 -0.16370001 -3.0085535 -0.060949102
000350 f0 4f 24 3d cb 5f dd 3d 3a 1d 93 bd ab 9b 94 bf
       0.040115297 0.10809287 -0.07183309 -1.1610006
000360 61 45 dd bc 64 cc 18 bd 42 59 19 3e 36 7e 87 3c
       -0.027010622 -0.037304297 0.14975455 0.016539674
000370 b7 7d 39 bd 5a ef cd be f1 e2 da 3d 74 4f 35 3e
       -0.045285907 -0.40221673 0.10687817 0.1770609
000380 4a 18 9c bd 66 5b 43 3d 8a d6 4a bf 6b 39 c5 bc
       -0.0762182 0.047694586 -0.7923361 -0.02407523
000390 1f 9e 3b be c0 e4 67 bd a2 b2 a5 be 0a 20 2d bd
       -0.18322037 -0.056614637 -0.3236285 -0.042266883
0003a0 4b 4d 7a 3e 01 fa 1b bd 32 17 dd bf 34 25 e2 3c
       0.24443547 -0.03808022 -1.7272704 0.02760563
0003b0 b8 20 b9 bd ac ed 46 3e dc 9d 93 3c df 70 8c bd
       -0.09039444 0.19426602 0.01801961 -0.06857466
0003c0 f6 9d 3d be ef 72 9c bd 74 41 8a bc 26 b7 bb bf
       -0.18517289 -0.07639109 -0.016876914 -1.4665267
0003d0 5d f9 0b 3e 0b 60 96 3e 7a 54 a0 3d 1e 92 26 bd
       0.13669343 0.2937015 0.078286126 -0.040666692
0003e0 3e 7d 28 bd 22 d1 a0 3d 44 14 a0 3c 28 a9 28 3d
       -0.041135065 0.07852389 0.019540913 0.041176945
0003f0 d0 67 66 bd 20 c4 3e 3e 1f 06 da 3d cd 1c 57 3d
       -0.056251347 0.18629503 0.10645699 0.0525177

transformer_encoder.layers.0.linear2.bias f4 [19]
000000 e7 6f 7e 3b a8 17 26 3b d1 f6 55 3b 82 45 fc 39
       0.0038824023 0.002534369 0.0032648335 0.00048116973
000010 c6 1b 1e 3c d5 d3 d0 3a 2a 28 84 bc 29 60 d4 ba
       0.009650176 0.0015932271 -0.016132433 -0.0016202974
000020 73 32 82 bc 0f 03 88 3c cb 22 9c 3c ee 38 bd 3c
       -0.015893197 0.016603021 0.01905956 0.023098435
000030 d3 2a c4 3b 68 0a 2d bc bd 7b ad 3b 8a ba c5 bc
       0.0059865504 -0.010561563 0.005294292 -0.0241368
000040 97 bc 29 bc 4d 69 44 3c 19 90 e4 3b
       -0.010359905 0.011987996 0.0069751856

transformer_encoder.layers.0.norm1.weight f4 [19]
000000 da a4 f4 3e 88 f5 73 3f f8 f9 85 3f 8e 10 cd 3f
       0.47782022 0.95296526 1.046691 1.6020677
000010 5e 6b bd 3f 7a fe be 3f e5 72 c6 3f c1 bd 7b 3f
       1.4798391 1.492141 1.5503813 0.98336416
000020 d3 d1 88 3f e9 3d 65 3f 4d 23 8f 3f 5f 7d 9f 3f
       1.0689033 0.8954759 1.1182648 1.2460135
000030 6e 18 54 3f bf 7f 9b 3f a9 29 ac 3f 2e 52 86 3f
       0.82849777 1.214836 1.3450214 1.0493829
000040 f6 f6 8d 3f 58 d7 83 3f e1 8e 61 3f
       1.1090991 1.0300093 0.8810864

transformer_encoder.layers.0.norm1.bias f4 [19]
000000 ea 56 42 bf 63 d3 d8 bd 21 75 14 bd 10 50 9a 3d
       -0.7591387 -0.10587194 -0.036244515 0.07534802
000010 3e df 70 3d 32 3a 7f 3d 69 49 ab 3c fa 11 cc 3b
       0.05880665 0.06231136 0.020909028 0.006227729
000020 c1 ac cb bc 20 da 3e 3e c3 b8 73 3e be 23 6c 3e
       -0.024862649 0.18637896 0.2380095 0.2306051
000030 4e 5e 19 3e 61 cc 22 3c bd 07 38 3d aa 8d cd 3c
       0.1497738 0.009936423 0.044929255 0.025091965
000040 24 f2 20 bc e0 81 de 3d 69 83 af 3c
       -0.009823356 0.108646154 0.021424966

transformer_encoder.layers.0.norm2.weight f4 [19]
000000 72 70 27 3f f3 b2 94 3f a7 6b 56 3f 7c 2d 81 3f
       0.6540595 1.1617111 0.83758014 1.0092006
000010 6c 78 73 3f cf dc 9f 3f 05 41 b0 3f 87 62 63 3f
       0.95105624 1.248926 1.3769842 0.88822216
000020 dc f3 9d 3f 15 73 a7 3f 67 9c a5 3f 07 ea 92 3f
       1.2340045 1.3081995 1.2938355 1.147767
000030 54 b7 98 3f 96 86 90 3f 87 f5 92 3f a7 4e 81 3f
       1.1930947 1.1291072 1.1481179 1.0102128
000040 eb 76 a1 3f 8f b1 8f 3f 17 60 2d 3f
       1.2614416 1.1226062 0.67724746

transformer_encoder.layers.0.norm2.bias f4 [19]
000000 da 82 53 bf 23 71 5a 3e d7 f3 d6 3d 9c 8e 3b bd
       -0.8262154 0.2133222 0.104957275 -0.0457903
000010 5c 28 77 3e 38 26 84 3c 91 a2 b6 3e d9 7e a2 3d
       0.2413649 0.016131505 0.35670903 0.079343505
000020 1e 6e 4f bb 6b aa 72 bd 26 b5 43 ba 0c 95 36 3e
       -0.0031651328 -0.059244554 -0.0007465653 0.17830294
000030 53 a2 05 be be bf c8 bb dc ba 95 bd f5 02 29 bc
       -0.13050203 -0.006126373 -0.07311031 -0.010315646
000040 45 cf 96 bd 89 13 80 3e d4 c3 54 3d
       -0.07363752 0.25014904 0.05194457

transformer_encoder.layers.1.self_attn.in_proj_weight f4 [57, 19]
000000 f1 e3 19 3f 1d e9 b0 be 5b 06 90 3e c7 be 35 3d
       0.60113436 -0.3455285 0.2812985 0.044371393
000010 aa 7b 11 3e 8a 9e ab 3d aa 0b 10 be 5e 1a b9 bc
       0.1420733 0.08379848 -0.1406695 -0.02259558
000020 47 6f 14 3e 2b d8 a6 bd 28 1b 7d 3e 53 7a 7f 3d
       0.14495574 -0.081466995 0.2471739 0.062372517
000030 71 d7 d8 3e 59 4f a4 be be cb 39 3d 3e 5f f0 be
       0.4235187 -0.32091787 0.04536032 -0.46947664
000040 2c 64 80 be d2 47 25 be 66 f0 86 be a3 6a 17 3d
       -0.25076425 -0.16140679 -0.26355284 0.03696693
000050 75 bf 80 3e c4 1b 49 be a9 b1 bb be 13 df 60 3d
       0.2514607 -0.19639498 -0.3665898 0.05490024
000060 bb 7a a1 be b3 a8 e7 be 17 a3 49 3f 65 61 69 bf
       -0.31538948 -0.45245895 0.7876448 -0.9116424
000070 a4 c0 0e bd b7 99 54 be f3 a5 50 3e b9 6c e0 3d
       -0.034851685 -0.20761763 0.20375805 0.10958237
000080 6a 93 15 3d a5 ff 56 be c6 44 00 bf 83 6a 8d be
       0.036517538 -0.20995958 -0.5010494 -0.27620324
000090 c2 59 1a be 24 5b 66 bd f1 84 97 3e 7f 07 95 3e
       -0.15073302 -0.056239262 0.29593614 0.29107282
0000a0 05 19 a5 be 54 72 dd 3e 02 29 11 bf f5 f0 43 3e
       -0.3224565 0.43251288 -0.567032 0.19134887
0000b0 bd 6f 12 be 90 86 d9 bd 29 25 eb 3e 2b f0 d4 3c
       -0.14300437 -0.10621369 0.45926788 0.025993427
0000c0 6c f7 a0 3e 3d 8a 14 be b7 5e 57 3d fb f3 ba be
       0.31438768 -0.14505859 0.05258056 -0.36514267
0000d0 51 ad ae 3e 12 7b 94 3e 44 9d 5c 3c 3a 5d e5 be
       0.34116605 0.29000145 0.013465229 -0.4479769
0000e0 7f 67 ab be 2b 5c 32 be e0 39 10 be ac ed cf 3e
       -0.334774 -0.17417972 -0.14084578 0.40611017
0000f0 18 78 9c 3e a6 28 48 be e1 a7 de 3d 97 44 1b be
       0.30560374 -0.19546756 0.10871864 -0.15162884
000100 1d 0e 03 3f 66 75 62 3e a2 78 8c bd 00 a8 76 3e
       0.5119341 0.22115096 -0.068589464 0.24087524
000110 4b ba 15 bf e0 ba 8e 3f 7c b8 16 3e fb 76 04 bf
       -0.58487386 1.115078 0.14718813 -0.5174405
000120 4e f3 e9 3e 1b d0 14 3f c9 4f 4c be 5d 67 a2 3d
       0.4569344 0.58130044 -0.1995231 0.07929871
000130 96 98 d6 3d 49 0d 3a be 08 40 6b be e9 bd 1d bf
       0.10478322 -0.1816913 -0.22973645 -0.61617905
000140 97 bd c7 3d 8d b3 85 bc ce 3e 07 3e eb 2a ac be
       0.09752958 -0.016320968 0.13207552 -0.33626494
000150 e3 91 17 be 84 e0 7e 3e 72 5e 92 be ab 76 4e 3e
       -0.14801745 0.24890333 -0.2858768 0.20162456
000160 f4 6b f7 be fb 38 27 3d ac b8 99 bd 32 27 16 3f
       -0.4832455 0.040825825 -0.075059265 0.5865356
000170 20 ea 12 3f c4 39 c8 bc a0 f9 76 3e 70 47 cf 3e
       0.57388496 -0.024441607 0.24118662 0.4048419
000180 40 34 04 be 86 ac db bd bc 8a 20 bc 31 fc 98 be
       -0.12910557 -0.107262656 -0.009798702 -0.29879907
000190 52 a7 8a 3c 66 51 c7 bd 00 8a aa 3c db 9d ba 3d
       0.016925488 -0.097323224 0.020817757 0.0911214
0001a0 15 df 69 3e 77 32 52 3e cd bf 56 3c c1 dd 66 3e
       0.22839005 0.20527063 0.013107252 0.2254553
0001b0 ce 10 c9 3e dd d5 b1 bd 0b 2d 6e 3e 2c 0e 6c 3e
       0.39270633 -0.08683369 0.2325937 0.23052281
0001c0 9b 0b a7 bb 8b 9e ba be 75 f8 92 3d fc 00 72 be
       -0.005097819 -0.36449084 0.07176296 -0.23633188
0001d0 63 dd 6b bf 42 9b ec be d8 ad 35 3e 16 d1 16 3d
       -0.92134684 -0.46212202 0.17742097 0.036820494
0001e0 0e c9 10 3e 66 f6 8e 3e cc 9b 8a bc 59 03 0b bf
       0.14139196 0.27922362 -0.016919993 -0.54301983
0001f0 03 b3 4c 3d 85 e1 e0 bd 56 55 38 3e 93 15 b4 3e
       0.049975406 -0.109805144 0.18001303 0.3517271
000200 45 58 34 3e 52 3e b6 3e a7 21 6b be 3b aa 61 39
       0.17611797 0.35594422 -0.22962056 0.00021521088
000210 fe 1a a9 be 37 7c 95 bd 72 32 9a be 26 26 94 3e
       -0.33028406 -0.07299083 -0.30116612 0.28935355
000220 ca 9f fc 3b af da aa be f1 a5 3b be 74 eb f6 3e
       0.007709478 -0.33369967 -0.1832502 0.4822651
000230 86 6a 40 bd 75 c6 d5 be 2f f0 06 3f 3d e8 ba be
       -0.04697659 -0.41752973 0.5271024 -0.3650531
000240 cc be f8 3d fb ec 19 3d 9e 96 11 bf 3c 5e 80 bd
       0.121457666 0.037579518 -0.5687045 -0.06267974
000250 77 2b 15 3f b1 3e 69 3e b7 7c 30 be 8d 27 a1 3e
       0.5826945 0.22777821 -0.17235075 0.31475487
000260 4c 7f 1e 3d 77 be 20 be 14 24 c2 be 10 77 4c be
       0.03869562 -0.15697657 -0.3791815 -0.19967294
000270 52 ca a9 3e 38 0d 3b be 9c 35 8a be 6c 04 16 3f
       0.3316217 -0.18266761 -0.26994026 0.586005
000280 8f e3 ed 3e d3 18 91 3e 31 34 33 bf 47 41 bb 3e
       0.46462676 0.28339252 -0.7000151 0.3657324
000290 ef ae a6 bd 5a 92 0e 3e 4e e3 9f 3e b6 9f 8f 3c
       -0.08138835 0.13923016 0.31228107 0.01753221
0002a0 8f 77 03 3d bc 96 5d be ab 36 28 be 5d 1a be 3e
       0.03209644 -0.21639532 -0.16427104 0.3712949
0002b0 27 0f f0 be 87 ea 87 3e 97 7a 23 be 5a 53 30 3e
       -0.4688656 0.26546118 -0.15964733 0.17219296
0002c0 e5 0e b0 3e d0 07 27 bc 05 2f 0b bf 5b e2 11 3c
       0.34386364 -0.010194734 -0.5436862 0.008904065
0002d0 b4 3e 7d be 94 b5 c6 3d ee 46 28 3e 16 4b 7f 3e
       -0.2473095 0.09702602 0.16433308 0.24930987
0002e0 1d 82 e3 bd 17 f1 9e 3d 2d 7a 94 be ff 51 bc bd
       -0.111088015 0.07760828 -0.28999463 -0.09195327
0002f0 6e d2 0d 3d c5 8b c0 be 2d 73 34 bf 6a 42 ab be
       0.03462451 -0.37606636 -0.70488244 -0.33449107
000300 27 cf b3 3c 85 d7 83 3c ee 0a 46 3e c5 24 d8 3d
       0.021949364 0.016093979 0.19340107 0.10553888
000310 7f 83 6d be 59 7c f4 3e a3 fc 3b be 58 fd c2 3e
       -0.23194693 0.4775112 -0.18358092 0.3808391
000320 ac 01 57 bc af 2d ba 3b 47 7b 07 3f e2 8c 3f 3d
       -0.013122957 0.0056817154 0.5292248 0.046765216
000330 10 3a d4 3e de 61 98 be 14 28 06 be 9c 3e 79 be
       0.41450548 -0.29762167 -0.13101226 -0.2434029
000340 03 a0 5c 3e 68 35 0c bf e0 3f 20 3f 23 cc 32 3e
       0.21545415 -0.5476899 0.62597466 0.17460684
000350 5d 60 00 bf b9 15 56 be 46 fc 45 be 81 57 0e 3e
       -0.5014704 -0.20906724 -0.19334516 0.13900568
000360 66 71 08 bc 9f a5 84 bb 19 7f 96 3e 16 db 74 bd
       -0.008327818 -0.004048064 0.29393843 -0.05977925
000370 da aa 26 3f dd ad 06 3d 0d 80 87 3e 25 dc bb 3c
       0.6510445 0.032880653 0.26464882 0.022932122
000380 fc a4 3d bd ac 01 76 3c fa e2 a7 3e bc df e0 3e
       -0.04629992 0.015015047 0.32790357 0.43920696
000390 4e c3 9f 3d b2 5f ca 3e 2c 23 a9 3d fc 2e b9 be
       0.07800923 0.39526135 0.08258662 -0.3616866
0003a0 5a 54 83 be 31 22 83 bd 2a ec b1 3e 0b 77 af be
       -0.25650293 -0.06403006 0.3475049 -0.3427051
0003b0 de bb bd bc 88 fa 28 bd 4f 4e 97 3d ce c2 81 3e
       -0.023160871 -0.04125455 0.07387983 0.25343937
0003c0 c7 1c ea 3e 5c a0 32 3e b2 4e 8f 3e 40 77 ea 3c
       0.4572508 0.17443985 0.27989727 0.028621316
0003d0 c3 d9 00 be 75 0b b7 be 84 c4 14 bf 5d f9 2d 3e
       -0.1258307 -0.3575093 -0.5811236 0.16989656
0003e0 5c 3e 8f be d0 db ba be 2d fd 16 be 19 0a ca 3e
       -0.27977264 -0.3649583 -0.14745016 0.3946083
0003f0 ad f6 20 bd 5c 18 12 3f 01 98 f8 3d 28 e8 47 be
       -0.03929775 0.5706842 0.121383674 -0.19522154

transformer_encoder.layers.1.self_attn.in_proj_bias f4 [57]
000000 be ef 42 be ce 60 45 be 71 d0 77 be 98 86 0a 3e
       -0.19036767 -0.1927521 -0.24200608 0.13527906
000010 b3 19 2d be 51 30 86 3d 82 95 2e 3e 0c 66 a9 3d
       -0.16904335 0.065521844 0.1704922 0.08271417
000020 57 cf 03 3f 06 df 41 3d 62 51 7f 3d da be 01 3e
       0.5148825 0.047331832 0.062333472 0.1267046
000030 98 89 ea 3e 7e 8e 25 3f 8a 49 0b bf ce 37 87 3e
       0.458081 0.6467055 -0.54409087 0.26409763
000040 dd 87 fd be 2d 09 3f 3e ed 83 2b bf be 3c 12 be
       -0.49517718 0.18655844 -0.6699818 -0.14280984
000050 9e 8e 1a be 9f e4 88 bc 55 1f ca 3c 1b d7 96 be
       -0.15093467 -0.016710578 0.024673143 -0.29460987
000060 89 c6 f0 bd 35 21 98 b9 8c aa 50 bd ed be e5 bd
       -0.117566176 -0.0002901644 -0.050943896 -0.11218057
000070 66 d5 e4 3c b9 13 70 3e df cf bf bd 4f aa 30 3d
       0.027933788 0.23445024 -0.0936582 0.04313117
000080 44 99 07 3e 9b 0a ce be c9 87 2a 3e a6 53 15 be
       0.1324206 -0.40242466 0.1665336 -0.1458269
000090 59 f2 a1 bc a5 e5 ae bd d6 16 12 3c 10 0e 85 3d
       -0.01976888 -0.08539895 0.008916577 0.06496823
0000a0 f3 70 aa 3c 62 76 b5 3d 78 c7 d8 bd 3a 04 a4 bc
       0.020805812 0.0886047 -0.10584921 -0.020021547
0000b0 e8 62 ab 3d 99 d8 01 bd 5d 51 3a 3e e7 9e e5 bd
       0.08368474 -0.031700704 0.181951 -0.11211949
0000c0 26 83 49 3d e1 c3 db bd 3f 28 18 bc cf b6 91 3c
       0.04919734 -0.1073072 -0.009286939 0.017787365
0000d0 14 3e ac bd 0c d5 68 3d 7b ef 98 bc 8e 0b b0 bd
       -0.08410278 0.056843802 -0.01866888 -0.08595954
0000e0 35 f6 a2 bc
       -0.019892791

transformer_encoder.layers.1.self_attn.out_proj.weight f4 [19, 19]
000000 05 d2 77 3b 7d 72 7e bc e7 02 ab 3b 1d de ba 3c
       0.003781439 -0.015530226 0.005218852 0.02281099
000010 f2 dc 92 3b 02 59 d1 3b c6 d5 0e 3d b5 6c 07 bd
       0.004481905 0.0063887844 0.03487184 -0.033062655
000020 33 87 67 bc 73 bd c1 3b b0 11 6a 3c 0f 57 8b bb
       -0.014131355 0.0059124767 0.014286444 -0.0042523216
000030 2e 9d 8a bc e3 c5 44 3d d4 fb 63 bc db bf 0a 3d
       -0.016920652 0.048040282 -0.013915021 0.033874374
000040 e8 40 65 bc c5 9e 98 3c 0b ca 8e 3c 03 c7 ee bd
       -0.013992526 0.018630395 0.017430326 -0.11659052
000050 ff 57 ed 3d 8d 50 d6 3d d0 1c 91 3c e3 1a 84 be
       0.115890495 0.104645826 0.017713934 -0.25801763
000060 5b 2f 55 bd 3c 7c b8 3d 1d 86 e8 bd 91 59 1a 3e
       -0.052047115 0.09008071 -0.11353705 0.1507323
000070 c9 b7 cb bc 75 2f 19 be 9d 48 eb 3c b2 3e a3 bc
       -0.024867909 -0.1495951 0.028721148 -0.019927356
000080 11 67 7e 3c b5 41 10 be ed 1b 9c 3a cf b9 eb bd
       0.015527503 -0.14087565 0.0011910178 -0.115100496
000090 c6 6b 8a bd c1 89 07 be 9c cc 99 3d d8 a0 48 3d
       -0.067588374 -0.13236143 0.07509729 0.048981518
0000a0 10 90 6e bb 31 12 b7 3c 8e 36 d6 3c bf c6 52 3c
       -0.0036401786 0.022347542 0.02614906 0.012864768
0000b0 80 c1 e6 3c 86 20 2f 3e 00 17 bd bd bd bb 1a 3d
       0.02816844 0.1710225 -0.092329025 0.037776697
0000c0 b1 59 f4 3c 5b 24 5a 3d 26 d7 03 3d 58 a1 a7 3d
       0.029827924 0.053257328 0.032187603 0.08185071
0000d0 0b 87 81 3c b6 66 29 be fd 3d ab bc 76 c2 32 3b
       0.015811464 -0.16543087 -0.020903582 0.0027276552
0000e0 23 34 2b bb 1b 21 c6 3d 86 e6 30 bd 42 a3 13 3d
       -0.0026123605 0.09674283 -0.043188594 0.036044367
0000f0 77 cd 95 3d 37 92 ff bc da 2b cb bd 44 a4 67 bd
       0.0731458 -0.03119765 -0.099204734 -0.05655314
000100 86 32 b5 3d 8a 5a 36 bd eb 3f d0 3b 8c 06 99 3c
       0.08847527 -0.04451994 0.006355276 0.01867988
000110 1b ab 31 be a1 aa 8a bd 6c f8 16 3b 6a 7a 5d 3d
       -0.17350428 -0.06770826 0.0023036255 0.05407182
000120 99 ca 37 3c 81 ef a5 bd 79 c2 a3 3d 16 86 b0 3d
       0.011217737 -0.08102322 0.07996077 0.08619325
000130 b8 45 29 3e e5 a8 18 3d eb d0 5c bd 06 ed 44 bc
       0.16530502 0.037270445 -0.053910177 -0.012019401
000140 7f fd 47 bb d6 c9 8a bd 05 ac f1 3c 4f 12 1f bc
       -0.0030516086 -0.067767784 0.02950097 -0.009708955
000150 c8 2d 18 bd ad 07 27 bc 62 c6 af bd 8f db e4 3d
       -0.037153035 -0.010194701 -0.085827604 0.1117469
000160 50 50 1d bd 2c 49 f4 3c 54 cd 64 3d 4c 44 f6 bc
       -0.03840667 0.029820047 0.05585988 -0.030061863
000170 ef 4e c0 bc ad 00 eb 3c dc 85 b6 bc 09 e8 ba bd
       -0.023475138 0.028686846 -0.022280626 -0.091262884
000180 38 c4 b6 3d ce 4d 13 3c 70 c7 37 bb 3b b3 15 bd
       0.089241445 0.008990718 -0.0028042458 -0.03654788
000190 8a b8 c8 bd a7 dc f7 bd 63 94 6d bd 41 87 41 bc
       -0.09800823 -0.12102633 -0.05800284 -0.011812032
0001a0 04 27 57 3d c2 0d dc 3d 82 ea bb bb 7b 8c 4e bd
       0.052527443 0.107448116 -0.0057347426 -0.05042694
0001b0 05 92 97 3c 97 61 69 3d 73 73 2d bc ee 21 85 bd
       0.018502245 0.056977835 -0.010586607 -0.06500612
0001c0 f1 ca 27 3d 94 33 7b 3d 32 28 09 be 70 94 5c bd
       0.040965024 0.061328486 -0.1339424 -0.0538525
0001d0 ee c0 c2 3d 0b 03 2d bd cc 06 9d bd 17 ed 70 bc
       0.09509455 -0.04223923 -0.07667312 -0.014704964
0001e0 1f 15 6e be 68 3c 3e be c5 dd 8c 3e 4a 39 94 bd
       -0.23250245 -0.1857773 0.27512947 -0.072374895
0001f0 ee 76 b8 bd 5d bd 1e bd a5 73 16 bd b0 be 1b 3d
       -0.09007059 -0.03875481 -0.03673138 0.03802365
000200 e8 cb 06 3d 20 d5 11 3e 7f 66 84 be c7 86 06 be
       0.032909304 0.14241457 -0.25859448 -0.13137351
000210 fc 8d 26 be e8 fe 6c 3c 2f 16 7b bd b6 bf 09 3d
       -0.162651 0.014465071 -0.061300453 0.033630095
000220 3f 1e 86 3d 82 b7 a9 bd 30 e1 07 3e 10 84 e5 bd
       0.06548738 -0.082869545 0.13269496 -0.112068295
000230 7c 09 a5 bb 25 09 d5 bd 0a 91 7b 3d e5 a0 55 3c
       -0.005036531 -0.10402135 0.061417617 0.0130388485
000240 ff e3 bc bd 5a c1 cf bc 35 e3 ab bd ab 08 25 be
       -0.09223174 -0.025360752 -0.08392946 -0.16116588
000250 dc d5 81 be 4e c1 68 bd 6c 9d 18 be a1 99 80 3c
       -0.25358474 -0.056824975 -0.14903802 0.015698256
000260 17 a2 f3 3d 27 57 76 3d ad 82 2b 3d 31 f8 68 3d
       0.118961506 0.06014171 0.04187267 0.05687732
000270 bf f6 78 3d d9 ff be 3c f1 dd 26 3d a7 e4 e9 bd
       0.06078219 0.023315357 0.040739004 -0.11420565
000280 60 3a a3 3c 02 90 a3 3d ab 71 a5 bd 90 51 59 bd
       0.019925296 0.07986452 -0.08078321 -0.0530563
000290 f9 3d 2c bd b4 9e f9 3c af 38 28 bd a6 0e 87 3d
       -0.04205129 0.030471183 -0.041069683 0.06594591
0002a0 e3 ed 4c 3e 8e a2 49 3d 7c 0d 7d 3d 88 d7 fe bd
       0.20012622 0.04922729 0.061780438 -0.12443453
0002b0 32 03 05 be fe 29 ed 3c 2f c5 d6 bd b1 6d e1 3d
       -0.129895 0.028950687 -0.104868285 0.1100725
0002c0 bb 59 47 3e 73 e7 62 bd d5 74 ad bc 16 78 cc bd
       0.19467823 -0.05539651 -0.021173874 -0.09983842
0002d0 d1 3e 34 3d 1c 69 81 3d 13 a6 a7 bd 5c 01 9e 3d
       0.04400522 0.06318876 -0.08185973 0.07715103
0002e0 99 63 93 3d bd 4b d2 3d f4 a1 dc bc 98 93 38 3e
       0.07196731 0.10268352 -0.026932694 0.18025053
0002f0 8c 21 a8 bd c4 17 06 bd 60 ec 03 3d de 70 b1 3c
       -0.082095236 -0.03273751 0.032207847 0.021660265
000300 ce 2d 80 3d 0b 77 04 3d 99 2e 75 3d fe 73 0d 3e
       0.062587366 0.03234009 0.059858892 0.13813779
000310 e6 fa 4a bc a0 36 c7 3d 55 a0 31 3d f8 9e 71 bd
       -0.01238892 0.09727216 0.043365795 -0.058989495
000320 d9 42 79 3c 84 ad dc 3d 7d 35 39 3d fc 40 89 bd
       0.015213692 0.10775283 0.045217026 -0.06701848
000330 fe 25 d4 bd 62 ec 27 3c 8c 2c b4 3c dd b0 25 3e
       -0.10358809 0.010249229 0.021993898 0.16180749
000340 df 2c 8b 3d e6 7d 67 3d c1 43 bd 3d 53 e8 15 be
       0.06795668 0.05651655 0.09241439 -0.14639406
000350 c6 77 f8 3b 12 5d 9c 3e 7f 35 2e 3b 2c 65 d5 bc
       0.0075826375 0.30539757 0.002658218 -0.02604922
000360 b6 ce 18 3e 43 8f b3 3d 1f 4c 71 3d bf 3a 1a 3d
       0.14922604 0.087675594 0.058910485 0.03765368
000370 fc a3 04 3d a8 aa f2 bd 82 f2 24 b9 a4 6a c4 3d
       0.03238295 -0.11848956 -0.000157306 0.095906526
000380 bd 9d a3 bd d5 18 aa bc 5e 9b 5a bd c8 bc 65 bd
       -0.079890706 -0.020763794 -0.053370826 -0.05608824
000390 1f 4a 4f 3e d0 96 45 bd 05 8d c8 3b 7e 73 34 3c
       0.20243119 -0.04823953 0.0061203265 0.011013864
0003a0 8b 8c 9c 3d c2 09 2d 3e ec df 79 bc 02 3e dc 3b
       0.07643994 0.16898254 -0.015251141 0.006721259
0003b0 2a 71 f6 bd 6e 6e 11 bd 9b 41 cd 3d fe 33 0f bd
       -0.12033303 -0.035505705 0.10022279 -0.034961693
0003c0 c4 fc 98 bd 39 bc db bd dc 22 59 3d d6 e6 73 bd
       -0.07470086 -0.1072926 0.05301176 -0.059546314
0003d0 16 4a eb 3d d3 7e a4 3d 91 08 a2 bd 1f 15 d0 bc
       0.1148874 0.08032002 -0.0791179 -0.025400696
0003e0 90 b7 86 3d 94 f6 30 3e 99 7c 8d 3d 25 2e 28 be
       0.065779805 0.17281562 0.06908531 -0.16423853
0003f0 13 11 af bd 88 b9 1d 3e 54 f8 20 3e b7 1d 2e 3e
       -0.085481785 0.15402806 0.1571973 0.17003523
