src/buildteam/best_model_weights.pth (torch, 63986 bytes, 37 tensors)

transformer_encoder.layers.0.self_attn.in_proj_weight f4 [57, 19]
0	0xbe280c56	-0.16410956
1	0x3ed87ba9	0.42281845
2	0x3e70f6bb	0.2353162
3	0xbeb6c435	-0.3569657
4	0xbe098ee8	-0.1343342
5	0xbe91a78b	-0.28448138
6	0x3ed11cd6	0.40842313
7	0xbd2d44ff	-0.042302128
8	0x3e03dc19	0.1287693
9	0xbdba7694	-0.09104648
10	0x3dd0b5b4	0.10190907
11	0x3d4d3a37	0.050104346
12	0x3eed2e9f	0.46324632
13	0xbd5df6d7	-0.054190483
14	0x3ec4082d	0.38287488
15	0xbe9365f2	-0.28788716
16	0x3ec5b8d5	0.38617578
17	0xbe103bf3	-0.14085369
18	0xbec61e8d	-0.38695183
19	0xbe1b8bf6	-0.1519011
20	0xbebd5b20	-0.36983585
21	0xbd91a525	-0.07111577
22	0xbee26b43	-0.4422246
23	0x3e8803be	0.26565355
24	0x3e174af2	0.14774683
25	0xbeb88696	-0.3604018
26	0x3ee891c7	0.4542372
27	0x3f221f27	0.63328785
28	0x3e846254	0.25856268
29	0xbf620023	-0.8828146
30	0x3da8a192	0.08233942
31	0x3b582aa5	0.0032984402
32	0xbdebc06b	-0.1151131
33	0xbf0a66a3	-0.5406286
34	0x3c8d0f69	0.017219262
35	0xbe7c9451	-0.24665953
36	0x3ecb72bc	0.39735973
37	0x3ea517d0	0.3224473
38	0xbed7c9cd	-0.4214615
39	0x3e2f9c30	0.17149425
40	0x3dce8406	0.10083775
41	0xbc7b26a6	-0.015329039
42	0x3e25495c	0.16141266
43	0x3eb22c87	0.34799597
44	0x3edab1ae	0.42713684
45	0xbe865175	-0.26234022
46	0xbedf8c07	-0.4366152
47	0x3e32eaff	0.17472456
48	0x3f0ebe01	0.5575867
49	0x3e11a9f7	0.14224993
50	0x3e48f23b	0.19623654
51	0x3d85281e	0.06501792
52	0x3ebf4576	0.37357682
53	0xbe4af04e	-0.19818231
54	0xbe37c5c3	-0.17946534
55	0xbdaad3ae	-0.08341156
56	0x3eda08f1	0.42584947
57	0xbeafdad4	-0.3434664
58	0xbe01223d	-0.12610717
59	0x3dcd2eae	0.10018669
60	0x3e981429	0.2970288
61	0xbc5b0f0b	-0.013370286
62	0x3eb218db	0.34784588
63	0xbaf5860c	-0.0018731966
64	0x3dfa3f41	0.12219096
65	0x3d0f34b5	0.034962375
66	0x3c886655	0.016650358
67	0x3e8a2fd0	0.26989603
68	0xbd8d75c2	-0.06907226
69	0xbed75c23	-0.42062482
70	0x3de2b55f	0.1106975
71	0x3edba684	0.4290048
72	0xbc5a52f4	-0.013325442
73	0xbe9ad8e7	-0.30243608
74	0x3ebadb88	0.36495614
75	0x3e777b6c	0.24168175
76	0x3e6f5396	0.23371729
77	0xbd902eaf	-0.07040154
78	0xbe49ab61	-0.19694282
79	0x3e34d65a	0.17659894
80	0x3f0b2d36	0.5436586
81	0xbd36c5d3	-0.044622254
82	0x3cf6aff2	0.030113194
83	0x3e784d74	0.24248296
84	0x3eb01b46	0.34395808
85	0xbe5fb4bc	-0.21846288
86	0xbeb72a8a	-0.35774642
87	0xbe0f787e	-0.14010808
88	0xbecb8b41	-0.3975468
89	0xbe414b67	-0.1887642
90	0xbefaa632	-0.48954922
91	0xbd9e0c6d	-0.07717214
92	0xbece8752	-0.40337616
93	0x3d71a878	0.058998555
94	0xbdc216f7	-0.094770364
95	0xbeaf90e3	-0.34290227
96	0x3e45f940	0.19333363
97	0x3edde85e	0.43341345
98	0xbc224049	-0.009903022
99	0x3e9c4b66	0.30526274
100	0x3ed1f7a0	0.41009235
101	0x3e74124e	0.23835108
102	0x3eb85490	0.36002016
103	0xbec4becd	-0.3842682
104	0x3ebba9aa	0.3665288
105	0x3dd0962c	0.10184893
106	0x3dfe7af1	0.12425793
107	0xbe1025da	-0.14076939
108	0xbde688c0	-0.11256552
109	0xbdf1815d	-0.11792252
110	0x3e3192f7	0.17341219
111	0xbd8ecb43	-0.06972363
112	0xbd967910	-0.073473096
113	0x3e81684a	0.2527488
114	0x3ebaaca4	0.3645984
115	0xbe793bc7	-0.2433921
116	0xbe3fa1ac	-0.18714017
117	0x3c9e4927	0.019321991
118	0xbed1e85f	-0.40997598
119	0xbe523e12	-0.2053149
120	0xbd82b486	-0.06382088
121	0xbedf5fee	-0.43627876
122	0xbe4bfcc9	-0.19920649
123	0xbe827969	-0.25483254
124	0xbee90877	-0.4551427
125	0xbe86e5c1	-0.26347163
126	0x3e2cd3ac	0.16877621
127	0x3de2f56d	0.110819675
128	0xbd734522	-0.059392102
129	0x3c059346	0.0081527885
130	0x3d8b3f81	0.06799222
131	0xbeddfde4	-0.43357766
132	0x3d2ba82a	0.04190842
133	0xbdb9931f	-0.09061264
134	0xbe24a8f2	-0.16080073
135	0x3e1c8382	0.15284541
136	0xbdba67ed	-0.091018535
137	0x3f154a7c	0.5831678
138	0x3ea7721a	0.3270424
139	0xbef97302	-0.48720556
140	0xbe7b5baa	-0.24546686
141	0x3d096ac4	0.033549085
142	0x3d4f4e05	0.050611515
143	0xbd4e1045	-0.050308485
144	0x3cd86e5a	0.026419807
145	0xbe772578	-0.24135387
146	0xbd434df3	-0.04768176
147	0xbf0033ec	-0.50079226
148	0x3d39801b	0.045288187
149	0xbea3d64b	-0.3199943
150	0x3f076f02	0.5290376
151	0xbd886014	-0.066589504
152	0x3d74fee1	0.059813384
153	0xbe682743	-0.22671227
154	0x3da53d22	0.08068301
155	0x3d56a154	0.05239995
156	0x3ed30505	0.41214767
157	0x3e1b6657	0.15175758
158	0xbecd129f	-0.4005327
159	0x3eef2b29	0.46712616
160	0x3ed0b171	0.40760377
161	0xbd807ed2	-0.06274189
162	0x3e98beb7	0.29833004
163	0xbe149a59	-0.14512004
164	0xbea55519	-0.32291487
165	0x3e40beed	0.18822832
166	0x3df1dccc	0.11809692
167	0xbe948636	-0.29008645
168	0xbe4a26f3	-0.1974142
169	0x3f3cb78b	0.73717564
170	0xbeee7dbd	-0.46580306
171	0x3eb65891	0.35614446
172	0xbe22a90b	-0.15884797
173	0xbed84a0c	-0.42243993
174	0x3e34739e	0.1762223
175	0xbecd7fbb	-0.40136513
176	0xbefebc24	-0.49752915
177	0xbe2ab6f5	-0.16671355
178	0xbe53f065	-0.20697172
179	0x3cfa1109	0.030525701
180	0xbe446a22	-0.19181111
181	0x3e908cbe	0.28232378
182	0xbe75d008	-0.24005139
183	0xbe5e845c	-0.21730179
184	0xbe5aa18b	-0.21350686
185	0x3e1a38e3	0.15060763
186	0x3ec97c72	0.39352757
187	0xbd7651cc	-0.0601366
188	0x3e2eba66	0.17063293
189	0xbc8acc9c	-0.016943268
190	0x3e1ca1e0	0.15296125
191	0xbe570e61	-0.21001579
192	0xbebd7c62	-0.3700896
193	0xbef3a0bc	-0.47583568
194	0xbed5806c	-0.4169954
195	0x3d158926	0.036507748
196	0x3e90e12f	0.282968
197	0x3f4e7985	0.80654174
198	0x3e6d86c1	0.23195936
199	0xbd66052f	-0.056157287
200	0xbecf5ecc	-0.40502012
201	0xbdbd65c7	-0.09247928
202	0xbdd68d1a	-0.10476132
203	0x3df69447	0.120400004
204	0xbe342c96	-0.17595133
205	0xbee3f543	-0.44523057
206	0x3ef5df86	0.48022097
207	0x3ea7c128	0.32764554
208	0x3cf1107b	0.029426804
209	0xbe8c2795	-0.2737395
210	0x3e863be7	0.26217577
211	0xbf0cf2b8	-0.5505786
212	0x3d581758	0.052756637
213	0xbd958131	-0.07300032
214	0x3eb0c310	0.3452382
215	0xbe3772c7	-0.17914878
216	0xbbfd4426	-0.007729071
217	0x3f1f8c7b	0.6232373
218	0x3c81b942	0.015835408
219	0xbed3d266	-0.4137146
220	0x3e3621ea	0.17786375
221	0x3e8e8295	0.27834
222	0x3e0492be	0.12946603
223	0xbe8215ca	-0.2540725
224	0x3e8e321b	0.27772602
225	0xbe4d778a	-0.20065132
226	0x3e1ce4eb	0.153217
227	0xbc8cc98f	-0.017185954
228	0x3e62eb65	0.22160108
229	0x3e1f63be	0.15565392
230	0x3dc23fec	0.094848484
231	0xbdff6888	-0.1247111
232	0xbf030594	-0.51180387
233	0x3f14f87a	0.58191645
234	0x3ef8b316	0.48574132
235	0x3d4b4b88	0.04963258
236	0xbf016958	-0.50551367
237	0xbe37be0e	-0.17943594
238	0xbee92c6c	-0.45541704
239	0xbdfb7d3f	-0.12279748
240	0x3dfed625	0.124431886
241	0xbec03781	-0.37542346
242	0x3d58e2ae	0.052950554
243	0x3dbf54c6	0.09342341
244	0xbe476155	-0.19470723
245	0xbf135e39	-0.5756565
246	0x3dad07a1	0.08448721
247	0x3eb307fc	0.3496703
248	0xbd7ea8be	-0.062172644
249	0xbeaa6b09	-0.33284786
250	0x3d890bec	0.06691727
251	0xbe6a4fb6	-0.2288197
252	0xbe23ce8c	-0.1599676
253	0x3c4d092e	0.012514396
254	0x3e35aad3	0.17740946
255	0x3f272cf5	0.65302974

transformer_encoder.layers.0.self_attn.in_proj_bias f4 [57]
0	0xbe5e2917	-0.21695362
1	0xbe1a4218	-0.15064275
2	0xbe0e3b0a	-0.13889709
3	0xbd157fbe	-0.036498778
4	0xbc6f6698	-0.014611863
5	0xbdb979e7	-0.09056454
6	0x3d029240	0.031877756
7	0xbe27eb3b	-0.16398327
8	0x3e4c0f7c	0.19927782
9	0x3e7e4740	0.24831867
10	0xbe573345	-0.21015652
11	0x3e098595	0.13429864
12	0x3d88b1c1	0.06674529
13	0xbe0be7ab	-0.13662593
14	0x3e03eb3a	0.128827
15	0x3eaccde9	0.33750847
16	0xbec2779f	-0.3798189
17	0xbd46fd6f	-0.048581537
18	0x3e84bbc4	0.25924504
19	0x3fd51f9a	1.6650269
20	0x3efd69b3	0.49494705
21	0x3fac89eb	1.3479589
22	0x3fc07361	1.5035211
23	0xbf79bdb7	-0.97555107
24	0x3fae72be	1.3628767
25	0xbf673330	-0.9031248
26	0x3fbfcc66	1.4984252
27	0xbff12b58	-1.8841352
28	0xbfff25b5	-1.9933382
29	0xbfa84041	-1.3144609
30	0x3fa6fb5d	1.304546
31	0xbf4cc653	-0.7999012
32	0xbff268ca	-1.8938229
33	0x3f9d265d	1.2277333
34	0x3e0fb7e8	0.14034998
35	0xbf77a513	-0.9673626
36	0xbfad45d5	-1.3536936
37	0x3f85e00a	1.0458996
38	0xbe820101	-0.2539139
39	0x3ead0214	0.33790648
40	0xbd93aeb7	-0.072110586
41	0xbe624001	-0.22094728
42	0x3e10734d	0.14106484
43	0x3e0c9f30	0.137326
44	0xbcb220ee	-0.021744218
45	0x3e94437c	0.28957736
46	0xbd0a7460	-0.03380239
47	0xbe010d3d	-0.12602706
48	0x3d90b103	0.07065012
49	0xbd2367f2	-0.03989405
50	0x3e2d91f1	0.16950203
51	0xbd6c40ce	-0.05767899
52	0xbd337aa9	-0.04381815
53	0xbe472dee	-0.19451115
54	0x3ea3eb19	0.32015303
55	0x3e6381b1	0.22217442
56	0xbca0ef3b	-0.019645324

transformer_encoder.layers.0.self_attn.out_proj.weight f4 [19, 19]
0	0xbdcc415c	-0.09973404
1	0x3e6ef059	0.23333873
2	0xbcedaee1	-0.029014053
3	0xbe402849	-0.18765368
4	0x3d4abbd6	0.04949554
5	0x3e207f5b	0.15673582
6	0x3e114d8b	0.14189737
7	0xbd169d26	-0.036770962
8	0xbd3f1a73	-0.046656083
9	0xbd7b3534	-0.061330035
10	0xbd80c7a2	-0.06288077
11	0xbda0bb8c	-0.07848272
12	0xbda09a8c	-0.078419775
13	0xbd02bb5b	-0.031916957
14	0xbd72b813	-0.059257578
15	0xba79ec83	-0.0009533839
16	0x3df1fd55	0.118158974
17	0xbea8c1e2	-0.3296042
18	0xbe2f3404	-0.17109686
19	0x3e69cdf7	0.22832476
20	0x3c9bc0e6	0.01901288
21	0xbc397e37	-0.011321596
22	0x3e416807	0.1888734
23	0xbc5fc4bd	-0.013657746
24	0xbce7a6e1	-0.028277816
25	0xbd35493d	-0.0442593
26	0xbeab5a13	-0.3346716
27	0xbd4e2ea7	-0.05033746
28	0x3d0f50ca	0.034989156
29	0x3d1175e6	0.035512827
30	0xbdbdd92f	-0.0926994
31	0x3d549e46	0.051908754
32	0xbbe77fcf	-0.0070647965
33	0xbc4f89de	-0.012667147
34	0x3d4561ee	0.048189096
35	0x3da81c77	0.08208554
36	0xbd095304	-0.033526435
37	0xbc82dfd4	-0.01597587
38	0xbe081623	-0.13289694
39	0xbdb9c1e6	-0.09070186
40	0xbca8d1a6	-0.02060778
41	0x3d0e8e89	0.0348039
42	0x3d186c83	0.03721286
43	0xbdde56b6	-0.108563825
44	0xbb53b009	-0.003230097
45	0xbdc33157	-0.09530895
46	0xbc27c273	-0.010239231
47	0x3c69f314	0.014279146
48	0x3dc11f33	0.09429779
49	0x3e5d9bd3	0.21641473
50	0xbc35ec80	-0.011103749
51	0xbd171cf7	-0.036892857
52	0xbc1d0a64	-0.009584997
53	0xbc6bb3b1	-0.0143861035
54	0x3d442ecd	0.047896195
55	0x3da64ca9	0.081200905
56	0xbdf8c371	-0.121466525
57	0xbd21a1da	-0.039460994
58	0x3d47e26d	0.04879992
59	0xbb909101	-0.004411817
60	0x3cee827b	0.029114952
61	0x3c4f10f4	0.012638319
62	0xbd1e17ee	-0.03859704
63	0x3c3e9132	0.011631297
64	0xbd843ce8	-0.064569294
65	0xbd025308	-0.031817466
66	0x3cd59387	0.026071323
67	0xbcb97f06	-0.022643577
68	0x3c2b7e92	0.010467188
69	0x3ce6ea16	0.028187793
70	0xbbc2da16	-0.005946408
71	0x3c59ef8c	0.013301741
72	0xbc2b0e52	-0.010440426
73	0xbb10f4af	-0.00221185
74	0x3bdec35b	0.0067981905
75	0x3ce8fd4c	0.028441094
76	0xbe14f126	-0.14545116
77	0x3e1c8aac	0.15287274
78	0xbd1da1ed	-0.038484503
79	0xbc64deda	-0.013969148
80	0xbd1b9702	-0.03798581
81	0x3c909ebc	0.017653815
82	0xbd82c6e9	-0.06385595
83	0x3eeb6518	0.45975566
84	0xbe129da9	-0.14317955
85	0xbdf7b5dd	-0.120952345
86	0x3e9cf6f2	0.30657154
87	0xbdffe2b7	-0.12494414
88	0x3d275ee2	0.04086197
89	0x3c3336d7	0.010938368
90	0xbcbe8197	-0.023255153
91	0xbd4d6acd	-0.05015068
92	0x3e654a54	0.22391635
93	0x3e6c623e	0.23084351
94	0xbe2bfd57	-0.1679586
95	0x3e04f1ae	0.12982818
96	0x3d3258f9	0.043541882
97	0x3c940666	0.018069457
98	0x3d8f2702	0.06989862
99	0x3cd3e107	0.025864137
100	0x3ce571a2	0.028008286
101	0x3c99b163	0.018761342
102	0xbd849e2c	-0.064754814
103	0x3cf3d276	0.029763442
104	0xbd819cb8	-0.0632872
105	0xbd8ebef7	-0.069700174
106	0xbd156555	-0.03647359
107	0x3d55afd8	0.05216965
108	0x3c661e7a	0.014045352
109	0xbc2f3327	-0.010693348
110	0x3c2ff99d	0.010740665
111	0x3d83ae35	0.06429712
112	0x3d54ec09	0.051982913
113	0x3d3657d3	0.04451735
114	0x3ddaf0a2	0.10690428
115	0x3d3d3087	0.046188857
116	0xbd2a863b	-0.04163192
117	0x3caf47a5	0.021396467
118	0xbcf7affe	-0.030235287
119	0xbc6f67ac	-0.01461212
120	0xbd221c1a	-0.03957758
121	0xbe0c21b3	-0.1368473
122	0xbbb5cd84	-0.005548181
123	0x3b956736	0.004559423
124	0xbcdedfff	-0.027206419
125	0x3ad5e028	0.0016317414
126	0xbc6ba69c	-0.0143829845
127	0xbd127d3e	-0.03576397
128	0x3bf30778	0.007416662
129	0x3c0cd69c	0.008596089
130	0x3d8d3155	0.06894175
131	0x3c824db3	0.01590619
132	0x3bd01dac	0.0063511934
133	0x3dd07803	0.101791404
134	0xbc1e2fd0	-0.009654954
135	0x3ca43558	0.020044968
136	0x3dd76648	0.105175555
137	0x3ba6eadc	0.0050939154
138	0xbd34e058	-0.044159263
139	0xbca69bf0	-0.020338029
140	0xbdfef419	-0.12448902
141	0xbcf0de45	-0.029402861
142	0xbd144d2c	-0.03620641
143	0x3c79c23b	0.015244062
144	0x3c072121	0.008247645
145	0x3c7fe47a	0.015618438
146	0x3ce73b5b	0.028226545
147	0xbcafd424	-0.021463461
148	0xbc5ea8f4	-0.013590086
149	0x3d9a974a	0.07548387
150	0x3d800195	0.06250302
151	0x3d059ae9	0.032618437
152	0x3ca00deb	0.019537887
153	0x3d33559c	0.043782815
154	0x3c3b68bd	0.011438546
155	0x3defe674	0.11713877
156	0x3d1ad5ca	0.03780154
157	0x3c23dae5	0.010000919
158	0x3d217e18	0.039426893
159	0xbe445faa	-0.19177118
160	0xbcc4a632	-0.02400503
161	0xbdc672c9	-0.09689862
162	0xbde33658	-0.110943496
163	0x3d32a3bf	0.04361319
164	0x3c7fad95	0.01560535
165	0x3c660424	0.014039073
166	0x3ce87a7b	0.028378716
167	0xbdbe5036	-0.09292643
168	0x3d43e4bd	0.047825564
169	0xbc8b8539	-0.017031299
170	0x3d9f4383	0.07776549
171	0xbddb39f3	-0.10704412
172	0xbc90e1fd	-0.017685885
173	0xbd2755e2	-0.04085339
174	0xbe9e6170	-0.30933714
175	0x3c0dd685	0.0086571025
176	0xbd100035	-0.035156447
177	0xbc6af53b	-0.014340694
178	0x3e002b21	0.12516452
179	0x3be6020c	0.007019287
180	0x3d78e3bd	0.060764063
181	0x3c2ce1b2	0.010551857
182	0x3d31ae5e	0.04337918
183	0x3cf4f631	0.02990255
184	0x3b87cc0f	0.0041441987
185	0x3cc5aedb	0.02413123
186	0xbd5aadc8	-0.053388387
187	0xbbbe34ca	-0.005804633
188	0xbc8234fa	-0.015894402
189	0xbdeae824	-0.114700586
190	0x3ec37402	0.38174444
191	0xbe3dce8f	-0.18535827
192	0xbe0035e8	-0.12520564
193	0xbdc2ae76	-0.09505932
194	0xbc7c4ffb	-0.015399928
195	0xbef5737c	-0.4793967
196	0x3e59b76b	0.21261375
197	0xbd87a9da	-0.066241935
198	0xbda6f9e9	-0.08153135
199	0xbed9dad2	-0.4254976
200	0x3e306442	0.17225745
201	0xbc2bb20d	-0.010479462
202	0x3e2f4b68	0.17118609
203	0xbe7ff133	-0.24994354
204	0x3d152b37	0.036418166
205	0x3dc25270	0.0948838
206	0x3d3dbdb9	0.04632351
207	0x3e2c74dc	0.16841453
208	0x3ebf5ec7	0.37376997
209	0xbf54d662	-0.8313962
210	0x3eb0a07c	0.3449744
211	0x3d8cdc94	0.068780094
212	0xbe58b9f0	-0.2116468
213	0x3d76da3c	0.06026672
214	0x3cf9ece6	0.03050847
215	0x3d82290d	0.06355486
216	0x3f23482b	0.63781995
217	0x3c02f9c3	0.007994118
218	0xbe6979a5	-0.2280031
219	0xbe4c38cc	-0.19943541
220	0xbcaa9518	-0.020823047
221	0x3d6837cd	0.05669384
222	0x3d9a03a2	0.07520224
223	0x3c181968	0.009283401
224	0xbdb3d05c	-0.08779976
225	0x3e273fdc	0.16332954
226	0x3df7fed3	0.12109151
227	0x3e85c575	0.2612721
228	0xbdf99f8c	-0.12188634
229	0x3cf114fe	0.029428955
230	0x3b0db97d	0.0021625452
231	0xbcf7a7e2	-0.03023142
232	0x3d3c65b1	0.045995418
233	0xbdb99561	-0.09061695
234	0xbc81bd5c	-0.015837364
235	0x3af31e1b	0.0018548401
236	0x3bbfdbf2	0.005855077
237	0x3ca3f73b	0.02001535
238	0xbcb5eeda	-0.02220862
239	0x3d3ae47e	0.045628063
240	0x3d72104c	0.059097573
241	0x3caa5e20	0.020796835
242	0xbc333c7d	-0.0109397145
243	0xbcffe484	-0.031236894
244	0x3d4104b0	0.04712361
245	0x3d18cf63	0.037307154
246	0xbd36c1d8	-0.044618458
247	0x3d868aef	0.06569468
248	0xbdbf10c2	-0.09329368
249	0x3be2c48b	0.0069204024
250	0x3d979865	0.07402114
251	0x3d14c123	0.036317002
252	0xbcbad8ee	-0.022808518
253	0xbc94a96f	-0.018147198
254	0xbcee29ef	-0.02907273
255	0x3cbceef7	0.023063166

transformer_encoder.layers.0.self_attn.out_proj.bias f4 [19]
0	0xbedb66db	-0.4285191
1	0xbcb8f0ad	-0.0225757
2	0x3d3b11f1	0.045671407
3	0x3b0c6920	0.0021424964
4	0x3dbeca7c	0.093159646
5	0x3d459adb	0.048243385
6	0x3c547e6f	0.012969597
7	0x3d7dfaa6	0.062006615
8	0xbca86fb4	-0.020561077
9	0xbc9a4a8f	-0.01883438
10	0x3d810267	0.06299286
11	0xbd3123ad	-0.043246914
12	0x3cb8660b	0.022509595
13	0xbd0041ef	-0.03131288
14	0x3ca64d4a	0.020300526
15	0xbcf5c9b1	-0.0300034
16	0x3ca950bd	0.020668382
17	0xbcdf646e	-0.027269568
18	0xbcd66585	-0.026171455

transformer_encoder.layers.0.linear1.weight f4 [64, 19]
0	0xbf820904	-1.0159001
1	0x3dd2baf3	0.10289564
2	0x3f35be7c	0.7099378
3	0x3ee08152	0.43848664
4	0x3e20505a	0.15655652
5	0x3ed08a66	0.4073059
6	0x3e3c778b	0.18404977
7	0xbad09f1f	-0.0015916562
8	0xbda95915	-0.08268944
9	0xbef89abb	-0.4855555
10	0x3ed57afd	0.41695395
11	0x3e327ea7	0.17431127
12	0x3d5aaadb	0.053385597
13	0xbe93267e	-0.28740305
14	0x3dd83249	0.10556466
15	0x3c8731cb	0.016503235
16	0xbebf4232	-0.3735519
17	0xbd3f8b8f	-0.046763953
18	0x3ece21ca	0.40260154
19	0xbe65ad0b	-0.22429292
20	0xbe321c93	-0.17393713
21	0xbdb545de	-0.08851217
22	0x3deed0cc	0.116609186
23	0x3e8fbcc8	0.28073716
24	0x3edfa36f	0.43679377
25	0xbed45007	-0.41467306
26	0xbedad420	-0.42739964
27	0x3e1b57ef	0.15170263
28	0xbebbf243	-0.3670827
29	0x3e161a0d	0.14658375
30	0x3e0e9839	0.13925256
31	0x3fa8dbb3	1.3192047
32	0x3d909e16	0.070614025
33	0xbcb450c6	-0.022011172
34	0x3e95cd11	0.29258016
35	0x3edf0c2d	0.43563977
36	0xbf165210	-0.5871897
37	0xbdb3a976	-0.087725565
38	0xbc9bc2e7	-0.019013835
39	0x3e0cd299	0.13752212
40	0xbe6a6c22	-0.22892812
41	0x3e9019c3	0.28144655
42	0x3f4c1566	0.7972015
43	0xbea103fa	-0.31448346
44	0x3e0111d6	0.1260446
45	0xbeea7955	-0.45795694
46	0xbf11dbd8	-0.5697608
47	0x3c9d1520	0.019175112
48	0xbe1b13e7	-0.15144311
49	0x3d3baf89	0.0458217
50	0x3eea77db	0.45794567
51	0xbefe8ee0	-0.4971838
52	0xbd4c8324	-0.049929753
53	0x3ed9d5da	0.42545968
54	0x3f8c015d	1.0937916
55	0x3c52f27c	0.012875196
56	0x3e49dc59	0.19712962
57	0xbdedc170	-0.11609161
58	0xbec5d493	-0.38638744
59	0xbe8a4ef0	-0.2701335
60	0x3df58582	0.11988355
61	0x3f1ce2b8	0.61283445
62	0x3ddecf6d	0.10879407
63	0x3e5aa198	0.21350706
64	0x3ed3d17c	0.4137076
65	0xbe9592ed	-0.29213658
66	0xbf4d9825	-0.8031028
67	0x3dbf3ff8	0.09338373
68	0x3f280e6b	0.65647
69	0x3ddc8d70	0.107691646
70	0x3f17e844	0.59338784
71	0xbe03ede2	-0.12883714
72	0x3eb0ba86	0.34517306
73	0x3efbc97f	0.49177167
74	0xbe4bfe26	-0.19921169
75	0xbcf0f553	-0.029413855
76	0x3da0e053	0.078552864
77	0x3da8cc0f	0.08242046
78	0x3e8bfd85	0.27341858
79	0x3e6ac224	0.22925621
80	0xbeb58a1f	-0.3545694
81	0xbe1c9f17	-0.15295063
82	0x3cb659a6	0.022259545
83	0x3d95cb9c	0.07314226
84	0x3e8de65c	0.27714813
85	0xbe5dc30b	-0.21656434
86	0x3e88e27b	0.2673529
87	0x3ed52b87	0.4163477
88	0x3d7f464b	0.062322896
89	0x3f03bb09	0.5145727
90	0x3dad1148	0.08450562
91	0xbebb4a6a	-0.3658021
92	0xbe0d8f7d	-0.13824268
93	0xbe00be89	-0.12572683
94	0xbdfc4f85	-0.12319855
95	0xbf0baf17	-0.5456404
96	0x3d4eff16	0.050536238
97	0xbe3d5a05	-0.18491371
98	0xbe953d81	-0.29148486
99	0x3ea536d9	0.32268408
100	0xbeca8f41	-0.3956242
101	0x3dbb5a60	0.09148097
102	0x3f794741	0.9737435
103	0x3e8f8b0e	0.28035778
104	0x3db509f0	0.08839786
105	0x3e316829	0.1732489
106	0x3e976081	0.29565814
107	0x3e68c019	0.2272953
108	0x3e81c184	0.25342953
109	0x3e2b5bab	0.16734187
110	0x3ef27228	0.4735272
111	0x3f337d54	0.7011311
112	0x3e821ebe	0.2541408
113	0x3e8b8529	0.2725003
114	0x3e2a9d1a	0.16661492
115	0x3eee86d9	0.46587256
116	0xbdbd1100	-0.09231758
117	0x3e6da14e	0.23206064
118	0x3f21cfe3	0.63207835
119	0xbcb5a0b0	-0.022171348
120	0x3c6b1867	0.01434908
121	0xbf0c8f3f	-0.54906076
122	0xbe336aff	-0.17521285
123	0x3ea0f92d	0.31440106
124	0xbd460a79	-0.04834983
125	0x3deaf5da	0.11472674
126	0x3e1646b4	0.14675409
127	0xbe6a3e78	-0.22875392
128	0xbd9d7efa	-0.076902345
129	0x3e16e61b	0.14736216
130	0x3f7346c3	0.9502985
131	0xbe5325c5	-0.20619877
132	0x3d402992	0.046914645
133	0xbe882482	-0.26590353
134	0x3d9f0194	0.07763973
135	0x3ebed3b0	0.3727088
136	0x3f140282	0.57816327
137	0x3f43b27c	0.7644422
138	0x3f17d6d6	0.5931219
139	0xbf31e03b	-0.69482774
140	0x3f2a6c25	0.66571265
141	0xbf36a86c	-0.7135074
142	0x3d3377dc	0.04381548
143	0x3e3f3fbc	0.18676656
144	0x3ec33aeb	0.38130888
145	0x3dfbb519	0.12290401
146	0xbe403880	-0.18771553
147	0xbcf868c1	-0.030323388
148	0x3e742618	0.23842657
149	0x3ea75758	0.32683825
150	0xbf0c88e7	-0.54896396
151	0x3e3a2313	0.18177442
152	0xbd57f186	-0.05272057
153	0x3d4d8fd7	0.050186004
154	0xbe2806d3	-0.16408853
155	0x3f0231e5	0.50857383
156	0x3e23d81f	0.16000412
157	0xbe3aa441	-0.1822672
158	0x3eb6d728	0.35711026
159	0xbeece23c	-0.46266353
160	0xbe21cb2b	-0.15800159
161	0xbf30cc06	-0.69061315
162	0x3e01c6cb	0.1267349
163	0x3e41039c	0.18849033
164	0xbcf47e06	-0.029845249
165	0xbd2d86f2	-0.042365022
166	0x3e28f708	0.16500485
167	0x3e3778b6	0.17917141
168	0x3f477321	0.7791005
169	0x3f389642	0.72104275
170	0x3d94acbf	0.07259511
171	0xbe3a3376	-0.18183693
172	0xbeb00e30	-0.34385824
173	0x3e69181f	0.22763108
174	0x3ee3363a	0.4437731
175	0x3f3a01c8	0.7265897
176	0x3d06251f	0.032750245
177	0x3da2f0ed	0.07956109
178	0xbf19583d	-0.59900266
179	0xbe2ca82d	-0.16861029
180	0xbf018098	-0.50586843
181	0x3de4071c	0.111341685
182	0x3f50753c	0.81428885
183	0xbe8531eb	-0.26014647
184	0x3ee60d3a	0.44931966
185	0x3cd92dc6	0.026511084
186	0x3ec769b0	0.3894782
187	0x3ee3a0cf	0.44458625
188	0xbe45bee5	-0.19311102
189	0x3d84753f	0.064676754
190	0x3c890a0b	0.016728422
191	0xbdac992b	-0.08427652
192	0xbda403ca	-0.08008535
193	0x3f7e9be2	0.9945661
194	0x3ea515c4	0.32243168
195	0xbe88a4c7	-0.26688215
196	0xbf37858f	-0.7168817
197	0x3d84332f	0.06455075
198	0x3d6cfb3a	0.057856776
199	0x3ebc5ea7	0.36790964
200	0x3e617247	0.2201625
201	0x3ee8b78c	0.45452535
202	0x3e9e4f84	0.3092004
203	0xbe2d54a6	-0.16926822
204	0xbdf6c0aa	-0.120484665
205	0x3d18fe46	0.03735187
206	0x3d4d3811	0.050102297
207	0xbcfcbaf8	-0.030850872
208	0x3f4ecf26	0.80784833
209	0xbf074365	-0.5283721
210	0x3e019a6f	0.12656568
211	0x3e7cf3bf	0.24702357
212	0xbdba5d5e	-0.0909984
213	0x3e0b90e7	0.13629495
214	0x3f15c4be	0.5850333
215	0x3e9d7031	0.30749658
216	0x3f0b427a	0.5439831
217	0x3e1f7400	0.15571594
218	0x3c85a426	0.016313624
219	0x3ed60352	0.41799408
220	0x3e8432dc	0.25820053
221	0x3e08f4ea	0.13374677
222	0x3eb7038c	0.35744894
223	0x3e78a88d	0.24283047
224	0xbf31b56c	-0.6941745
225	0xbe23ebd3	-0.16007929
226	0x3f476a94	0.77897
227	0xbd869767	-0.065718465
228	0x3db75f39	0.08953709
229	0x3f04203f	0.51611704
230	0x3f064f11	0.52464396
231	0x3d5cd542	0.053914316
232	0x3e8ee660	0.27910137
233	0x3e616f85	0.22015198
234	0x3e37374c	0.17892188
235	0xbe4d8d63	-0.20073466
236	0xbd3f6d49	-0.04673508
237	0xbf056f25	-0.5212272
238	0x3e518de4	0.20464283
239	0xbbb4aef4	-0.00551402
240	0x3e94447c	0.289585
241	0xbf3a889c	-0.728647
242	0xbcc20d99	-0.023688124
243	0x3ea07051	0.3133569
244	0x3e9f34c0	0.31094933
245	0xbce3996e	-0.027783122
246	0xbee16313	-0.440209
247	0xbd42f13a	-0.047593333
248	0x3da47399	0.08029861
249	0x3eaa3b59	0.33248404
250	0x3e5ef4a8	0.21773016
251	0x3e84ebf1	0.2596126
252	0x3e8710b1	0.26379922
253	0xbe17560d	-0.1477892
254	0x3ec97a1c	0.39350975
255	0xbd902cdc	-0.07039806

transformer_encoder.layers.0.linear1.bias f4 [64]
0	0xbf15c0eb	-0.58497494
1	0xbdf84290	-0.12122071
2	0xbdd9cc36	-0.10634653
3	0xbeafd511	-0.34342244
4	0xbed11098	-0.40832973
5	0xbea134b9	-0.31485537
6	0xbccaedcc	-0.024771594
7	0xbdb38780	-0.08766079
8	0xbde387ed	-0.1110991
9	0xbe64fd3d	-0.22362228
10	0xbe752e26	-0.23943385
11	0xbd76bbb6	-0.06023761
12	0xbe9de03f	-0.3083515
13	0xbe2f9967	-0.17148362
14	0x3d64cfa8	0.0558621
15	0xbe402f30	-0.18768
16	0xbe6d4945	-0.23172481
17	0xbc989211	-0.018624337
18	0xbe8fb2ee	-0.280662
19	0xbddc4e98	-0.10757178
20	0xbe807ed5	-0.25096765
21	0xbeb5483f	-0.35406682
22	0xbe60d62e	-0.21956703
23	0xbe8370c0	-0.2567196
24	0xbe28d5db	-0.1648783
25	0xbeacabbb	-0.3372477
26	0xbe2d907c	-0.16949648
27	0xbe3a5dc0	-0.18199825
28	0xbe229afc	-0.15879434
29	0xbe50ed3b	-0.20402996
30	0xbddc39ae	-0.10753189
31	0xbd9b89e7	-0.07594662
32	0x3c02e33e	0.007988749
33	0xbe5c689e	-0.21524283
34	0xbe86cc3e	-0.263277
35	0xbe3b119e	-0.18268439
36	0xbec6eeba	-0.3885401
37	0x3cb776ab	0.022395452
38	0xbe62b68c	-0.22139949
39	0xbde41775	-0.111372866
40	0xbe34ff66	-0.17675552
41	0x3c618f18	0.013767026
42	0xbd88d8de	-0.06681989
43	0xbcca628c	-0.024705194
44	0xbe31e3d3	-0.17372064
45	0xbeb09711	-0.34490255
46	0xbeba6539	-0.36405352
47	0xbf0266eb	-0.5093829
48	0xbe365339	-0.17805184
49	0xbd83f4a0	-0.06443143
50	0xbe962578	-0.2932546
51	0xbb86d605	-0.0041148686
52	0xbea4291e	-0.3206262
53	0xbeccee9b	-0.40025792
54	0xbe8a8d0d	-0.27060738
55	0xbe2cf500	-0.16890335
56	0x3d00fe88	0.03149274
57	0xbe162ac8	-0.14664757
58	0xbec1577f	-0.37762067
59	0x3dafe06e	0.085877284
60	0x3b927d42	0.0044704983
61	0x3ca09f8d	0.01960733
62	0xbe6faae6	-0.23405036
63	0xbdece210	-0.115665555

transformer_encoder.layers.0.linear2.weight f4 [19, 64]
0	0xbec25e7d	-0.37962714
1	0x3cdba284	0.026810892
2	0x3c9cfb5a	0.019162823
3	0xbb5e2f2e	-0.0033902633
4	0xbc6d7c77	-0.014495007
5	0x3df063b1	0.117377646
6	0x3bcd469b	0.0062645203
7	0xbe96c907	-0.29450247
8	0x3dfca141	0.12335444
9	0xbe429622	-0.19002584
10	0x3ac8870d	0.0015299037
11	0xbe4b3c5f	-0.19847248
12	0xbd709c58	-0.05874285
13	0x3cb767ae	0.022388306
14	0x3ca1c24a	0.019745965
15	0x3d1a7279	0.037706826
16	0x3bbbbd54	0.005729357
17	0x3d42b45e	0.047535293
18	0x3f7947cc	0.9737518
19	0xbbb1af0e	-0.0054224795
20	0xbf68e7cb	-0.9097869
21	0xbc2f1f7e	-0.010688661
22	0x3ce488fe	0.027897354
23	0x3d02fd2c	0.031979725
24	0x3c950d3b	0.018194785
25	0xbdc97be5	-0.09838084
26	0xbe971a03	-0.29512033
27	0x3dc79246	0.09744696
28	0x3ebb3900	0.36566925
29	0x3d5a222b	0.05325524
30	0xbc8756c4	-0.016520865
31	0xbdc391a5	-0.09549264
32	0xbcd1481e	-0.025547083
33	0xbb962d85	-0.004583063
34	0x3c0922c4	0.008370105
35	0xbc877a79	-0.016537892
36	0x3dd1820d	0.10229883
37	0xba4d6b4e	-0.0007836119
38	0xbd03232a	-0.032015957
39	0x3d5abffc	0.053405747
40	0xbbe9656b	-0.0071226857
41	0xbe882c21	-0.26596168
42	0x3db62598	0.08893889
43	0xbdd9a33a	-0.10626836
44	0xbd9a7f04	-0.075437576
45	0x3b6329f8	0.0034662466
46	0xbd00c165	-0.031434435
47	0x3dd177a8	0.10227901
48	0xbf4d5a14	-0.80215573
49	0xbc4c5848	-0.01247222
50	0xbda3f94c	-0.08006534
51	0xbb8425d8	-0.0040328316
52	0xbd915d12	-0.0709783
53	0x3dbd75d0	0.092509866
54	0xbc5deb19	-0.013544821
55	0x3d676d7f	0.056500908
56	0x3cfdae10	0.030966789
57	0x3d24587b	0.040123444
58	0xbccb303f	-0.024803279
59	0xbd3e72df	-0.04649627
60	0xbddac653	-0.106823586
61	0x3d66c92a	0.05634419
62	0xbc42cc32	-0.011889504
63	0xbe1d7443	-0.15376382
64	0xbc79bafd	-0.015242335
65	0xbc917ed8	-0.01776068
66	0x3dfb39a3	0.12266853
67	0x3db28496	0.08716695
68	0x3ef5599c	0.4791993
69	0x3f9d2f1d	1.2280003
70	0x3de03654	0.10947862
71	0x3ed93785	0.4242517
72	0x3ba88006	0.0051422147
73	0xbdf09e2e	-0.117489204
74	0xbc26fae9	-0.010191658
75	0x3e93287f	0.28741834
76	0x3e7dbbc2	0.24778655
77	0x3e96f772	0.2948566
78	0xbcac4bbc	-0.021032207
79	0xbdca5c3c	-0.098808736
80	0x3e2cddc6	0.16881475
81	0xbde36029	-0.111023255
82	0xbf272fd4	-0.65307355
83	0x3c99c34d	0.018769884
84	0xbebb6424	-0.3659984
85	0x3ecc1314	0.39858305
86	0x3c3ab40b	0.011395465
87	0x3ce2d5d9	0.027689861
88	0x3e5dd196	0.21661982
89	0x3f05883d	0.5216101
90	0x3f28f92b	0.660052
91	0x3f82105b	1.0161241
92	0x40658582	3.5862737
93	0xbdc113a3	-0.094275735
94	0x3f72661b	0.9468705
95	0xbd060096	-0.032715403
96	0xbd58d787	-0.052939918
97	0xbe2e7479	-0.17036618
98	0xbcc2f342	-0.023797635
99	0x3e1206e0	0.14260435
100	0xbf03f69a	-0.5154816
101	0xbd10eebf	-0.035383936
102	0xbd7e987c	-0.06215714
103	0x3cc867ef	0.024463622
104	0xbc180db7	-0.009280614
105	0x3f36763d	0.7127417
106	0x3b8fdb2d	0.0043901415
107	0x3dc66772	0.096876994
108	0x3e441b27	0.19150983
109	0x3f380e10	0.7189646
110	0xbd89ac59	-0.06722326
111	0x4023e7aa	2.5610147
112	0xbdbd4c24	-0.09243038
113	0x3e18763e	0.14888856
114	0x3db753b9	0.08951516
115	0xbc1482d0	-0.009064391
116	0x3dd628f3	0.10457029
117	0xbf9cf716	-1.2262905
118	0x3e9e43da	0.30911142
119	0x3d35a5bb	0.044347506
120	0xbd8d9e9c	-0.06915018
121	0xbc08bfa0	-0.008346468
122	0x3e3e2c85	0.1857167
123	0x3f9c3c8b	1.2205976
124	0x3e2b13bf	0.16706751
125	0xbddad1b6	-0.106845304
126	0x3baf9d75	0.0053593465
127	0xbdba01d6	-0.090823814
128	0xbe7fccd6	-0.24980482
129	0x3cda264a	0.026629586
130	0x3eb57cf3	0.3544689
131	0x3e82fdd2	0.25584275
132	0x3d8f2994	0.06990352
133	0xbf3fb93b	-0.74892014
134	0xbe932998	-0.2874267
135	0x3ec4d8bc	0.38446605
136	0xbda0141a	-0.07816334
137	0x3ec06e34	0.37584078
138	0x3cce821e	0.02520853
139	0x3f6ce05a	0.92529833
140	0x3e77d571	0.24202515
141	0xbe4361a8	-0.19080222
142	0xbe08a000	-0.13342285
143	0x3e7cdcfb	0.24693672
144	0x3d9c4c13	0.076316975
145	0x3e846036	0.25854653
146	0x3fb64531	1.4239866
147	0xbe60fc7c	-0.21971315
148	0x3f97ad93	1.1849846
149	0x3ed0fbe9	0.40817192
150	0xbaf76f75	-0.0018877821
151	0x3ebcd1df	0.3687887
152	0x3ec32a25	0.3811809
153	0x3dd7207d	0.105042435
154	0x3e907ac1	0.28218654
155	0xbd5db92e	-0.05413168
156	0x3f7c38f1	0.98524386
157	0xbc0f70cb	-0.008754919
158	0xbe8b4831	-0.27203515
159	0xbd628872	-0.055305906
160	0x3c6f4908	0.014604814
161	0xbe49c22c	-0.19702977
162	0x3e2e88f2	0.17044428
163	0x3d96669c	0.0734379
164	0x3f9aa5db	1.2081865
165	0x3d380522	0.04492677
166	0x3d78b7ca	0.06072215
167	0xbc6ff9cc	-0.014646959
168	0xbc41bdd7	-0.0118250465
169	0x3eed1666	0.4630615
170	0xbdd8131f	-0.10550522
171	0x3d2cd1a3	0.042192113
172	0x3ddec6db	0.108777724
173	0x3e485070	0.19561934
174	0x3e5e5e53	0.2171567
175	0x3e2c887f	0.16848944
176	0xbf86d746	-1.0534446
177	0xbe413495	-0.18867715
178	0xbdea5143	-0.11441281
179	0xbd6d1920	-0.05788529
180	0x3e8f706f	0.28015468
181	0xbfe65566	-1.7994812
182	0xbce46935	-0.027882198
183	0x3d5edebd	0.05441164
184	0x3c35f2ff	0.011105298
185	0xbe588cfa	-0.21147528
186	0xbdbd767a	-0.09251113
187	0x3ed9d9cf	0.42548987
188	0x3e0b17ef	0.13583349
189	0xbd43aa8e	-0.047770076
190	0x3db867e3	0.0900419
191	0xbddfb9fe	-0.10924147
192	0x3fa339e7	1.2752045
193	0x3d68a388	0.05679658
194	0xbf0c7f74	-0.5488198
195	0x3e171c48	0.14756882
196	0xbe126254	-0.14295322
197	0x3ed7591c	0.42060173
198	0xbecb11fe	-0.39662164
199	0x3d574686	0.05255749
200	0xbe8aba0d	-0.2709507
201	0xbe4a312f	-0.19745325
202	0x3cf629e1	0.030049266
203	0xbd9c6929	-0.07637245
204	0xbd848152	-0.064699784
205	0xbe312add	-0.17301507
206	0x3e319e4f	0.17345546
207	0xbefd6433	-0.49490508
208	0xbe8ca107	-0.27466604
209	0xbc4a686e	-0.012354
210	0xbfcacf04	-1.5844426
211	0x3ddf674f	0.109083764
212	0x3fe9d73e	1.8268812
213	0xbdb81e8f	-0.089902036
214	0xbdd3c167	-0.10339623
215	0x3e5f4a19	0.2180561
216	0x3d0c3e6b	0.034239214
217	0xbf051e97	-0.519998
218	0xbeb64e40	-0.35606575
219	0xbe96f033	-0.29480132
220	0xbf8826f4	-1.0636888
221	0xbe93c8f4	-0.28864253
222	0x3e1f7d7c	0.15575212
223	0x3d7adae9	0.061243925
224	0x3d506656	0.050878845
225	0x3ea59932	0.3234344
226	0xbed6ce7e	-0.41954416
227	0x3aef9c7a	0.0018280887
228	0x3e68e9b8	0.22745407
229	0xbdeaa000	-0.11456299
230	0xbf00c7b1	-0.50304705
231	0x3d0c3e69	0.034239206
232	0xbc41b877	-0.011823765
233	0x3eae05aa	0.33988696
234	0xbe66cced	-0.2253911
235	0xbe6dbd80	-0.2321682
236	0xbe27e186	-0.16394624
237	0xbf2101e2	-0.628935
238	0x3e5e25a7	0.2169405
239	0xbec80f02	-0.3907395
240	0x3f05021c	0.51956344
241	0xbe836a18	-0.2566688
242	0xbd867f53	-0.06567254
243	0x38a4448c	7.832897e-05
244	0x3b93d9ed	0.0045120628
245	0xbe63729f	-0.22211693
246	0x3e2b93a1	0.16755535
247	0x3d187055	0.037216503
248	0xbdc9ca61	-0.09853054
249	0xbdb621e6	-0.08893184
250	0x3dd7d053	0.105377816
251	0xbe599299	-0.21247329
252	0x3d45d96f	0.048303064
253	0xbebb99bc	-0.36640728
254	0x3d856884	0.065140754
255	0xbe711148	-0.23541749

transformer_encoder.layers.0.linear2.bias f4 [19]
0	0x3c24c469	0.010056593
1	0xbcb2df85	-0.021835098
2	0xbc6a5ce0	-0.01430437
3	0x3cdf9a0a	0.027295131
4	0xb90ab71e	-0.00013228922
5	0xbcf9115a	-0.030403782
6	0x3c768eba	0.015048677
7	0x3d2d0f7f	0.042251106
8	0xbd14d948	-0.036340028
9	0xbca8237f	-0.020524738
10	0x3cda9a04	0.026684768
11	0x3be49df7	0.0069768387
12	0x3ce1cfc3	0.027564889
13	0x3c9599fc	0.018261902
14	0xbc1d6bc8	-0.009608217
15	0xbcd35673	-0.025798058
16	0x3dad51da	0.084628776
17	0xbcf464a3	-0.029833144
18	0x3d1382c5	0.036013383

transformer_encoder.layers.0.norm1.weight f4 [19]
0	0x3ec85971	0.39130738
1	0x3fa591c8	1.2935114
2	0x3fbc5892	1.471453
3	0x3fe7d11e	1.8110693
4	0x3f661a7e	0.89884174
5	0x3fb8622e	1.4404962
6	0x3fd2ee50	1.6478977
7	0x3f9c1366	1.219342
8	0x3f978640	1.1837845
9	0x3f9fa322	1.2471659
10	0x3f774102	0.9658357
11	0x3f69677e	0.9117354
12	0x3fc89233	1.5669616
13	0x3f9a4f7d	1.2055508
14	0x3f437b46	0.76359975
15	0x3f999fc7	1.2001885
16	0x3fa0c1ef	1.2559184
17	0x3fa0fbb6	1.2576816
18	0x3fb78aa4	1.4339185

transformer_encoder.layers.0.norm1.bias f4 [19]
0	0xbf4eaa67	-0.80728763
1	0x3d853bc6	0.065055415
2	0x3d989042	0.0744939
3	0x3d89af1d	0.06722853
4	0x3c60484f	0.013689115
5	0xbde7b0a9	-0.11312992
6	0x3e1ea68d	0.15493222
7	0x3e8c8a64	0.27449334
8	0xbd006aae	-0.031351738
9	0x3d67b950	0.056573212
10	0x3dffbd3c	0.124872655
11	0x3dbe474c	0.092909425
12	0x3dfe6178	0.124209344
13	0x3eaf1358	0.34194446
14	0xbdacb6a0	-0.084332705
15	0x3d8c8908	0.06862074
16	0xbd800178	-0.0625028
17	0xbe12270e	-0.1427271
18	0x3e3602c8	0.17774498

transformer_encoder.layers.0.norm2.weight f4 [19]
0	0x3f76b28f	0.9636621
1	0x3f85eace	1.0462282
2	0x3fa0b439	1.2555
3	0x3f72ccdf	0.9484386
4	0x3fa0fb85	1.2576758
5	0x3f9ead9e	1.2396734
6	0x3fa22c44	1.2669759
7	0x3f9c0a75	1.2190691
8	0x3f8cf68d	1.1012741
9	0x3fb2e960	1.397747
10	0x3fb160da	1.3857682
11	0x3f914630	1.1349545
12	0x3f713289	0.94217736
13	0x3fa6353b	1.2984995
14	0x3f8a0363	1.0782284
15	0x3f9fae85	1.2475134
16	0x3f15ec7e	0.58563983
17	0x3f9cf1ff	1.2261351
18	0x3f8c4aed	1.0960366

transformer_encoder.layers.0.norm2.bias f4 [19]
0	0xbebb81a4	-0.36622345
1	0x3e8acb0b	0.27108034
2	0x3e14fd88	0.1454984
3	0x3d899abf	0.067189686
4	0x3cf05bcb	0.029340645
5	0x3ea32e77	0.31871387
6	0xbc9d9d48	-0.019240037
7	0xbd85b926	-0.06529455
8	0x3e9358e8	0.28778768
9	0x3dd4789d	0.10374568
10	0x3ccf2240	0.025284886
11	0xbc2ac314	-0.010422487
12	0x3e3812a0	0.17975855
13	0xbe96de36	-0.29466408
14	0x3df1055b	0.117685996
15	0x3eb186bb	0.34673104
16	0xbe452729	-0.1925322
17	0x3eac983f	0.33709905
18	0xbde48ce6	-0.11159687

transformer_encoder.layers.1.self_attn.in_proj_weight f4 [57, 19]
0	0xbef285f6	-0.4736783
1	0x3f5c773c	0.8611944
2	0x3ecfb077	0.4056432
3	0xbdc5c02e	-0.09655796
4	0xbf021139	-0.5080753
5	0xbe2f92ab	-0.17145793
6	0x3e00b1c3	0.1256781
7	0xbd4610bd	-0.048355807
8	0x3f290481	0.660225
9	0xbe39d3ae	-0.18147156
10	0xbd8889f7	-0.0666694
11	0xbd52c713	-0.051459383
12	0x3cf043e0	0.02932924
13	0x3d778377	0.06042811
14	0x3eb1f5ee	0.34757942
15	0xbe58a980	-0.21158409
16	0x3ea4caaf	0.32185885
17	0xbe9d33da	-0.30703622
18	0xbece374b	-0.4027656
19	0x3e1997e4	0.14999348
20	0xbeeb3759	-0.45940664
21	0xbe9b90f8	-0.3038404
22	0xbe7025cf	-0.23451923
23	0x3f3a9626	0.7288536
24	0xbef4c6ad	-0.47807828
25	0xbeaf7989	-0.3427241
26	0xbd5226e7	-0.05130663
27	0x3e65c254	0.22437412
28	0x3ea45c31	0.32101586
29	0xbe585b27	-0.21128522
30	0x3e473dc3	0.19457154
31	0x3eff1b04	0.498253
32	0xbec00062	-0.37500292
33	0xbf61a344	-0.8813975
34	0x3d6779c1	0.056512598
35	0xbea79d38	-0.32737136
36	0xbe989a68	-0.29805303
37	0x3e3f198d	0.1866209
38	0xbe91c4d1	-0.28470472
39	0xbd38e9ed	-0.045144964
40	0xbe639dec	-0.22228211
41	0xbe0e0d94	-0.13872367
42	0x3f378650	0.7168932
43	0x3eb6b1e1	0.35682586
44	0xbe689d57	-0.2271627
45	0xbe88d596	-0.26725453
46	0xbf296c4b	-0.66180867
47	0x3ea2a2f8	0.3176496
48	0xbe1b0eea	-0.15142408
49	0xbdc9eb07	-0.09859281
50	0x3f47f759	0.781118
51	0x3e74f78e	0.2392256
52	0x3e2f60b1	0.17126729
53	0xbf03086f	-0.51184744
54	0xbc916ff4	-0.017753579
55	0x3e33a8bd	0.17544837
56	0x3ea96ec6	0.33092326
57	0xbe9b48f1	-0.30329087
58	0x3e94350a	0.28946716
59	0x3e38b23f	0.18036745
60	0xbe5f604d	-0.2181408
61	0xbd59fd7c	-0.053220257
62	0x3df546b8	0.11976379
63	0x3d94b208	0.07260519
64	0xbeddf898	-0.43353724
65	0x3e55a205	0.20862587
66	0x3b29dc06	0.0025918498
67	0x3d289115	0.041153986
68	0x3de2ead4	0.11079946
69	0xbe58881d	-0.21145673
70	0xbe980d13	-0.29697475
71	0x3f63e657	0.89023346
72	0x3df49358	0.11942166
73	0xbe9d097f	-0.30671307
74	0xbf09d89d	-0.5384615
75	0x3e446402	0.19178775
76	0xbe43ae8b	-0.19109552
77	0x3f06879e	0.52550685
78	0xbe3524a8	-0.17689764
79	0xbd634447	-0.055485036
80	0x3e7fe699	0.2499031
81	0xbddde853	-0.10835328
82	0xbd6bc580	-0.057561398
83	0x3d30c46c	0.043156072
84	0x3f02c94f	0.5108842
85	0xbe766f69	-0.24065937
86	0x3e96ba7a	0.29439145
87	0xbe4e55b6	-0.20149884
88	0xbeaf04e3	-0.34183416
89	0xbe86e6fb	-0.263481
90	0x3ef7bc03	0.4838563
91	0xbf1cd7e4	-0.6126692
92	0x3dd4a12e	0.10382305
93	0xbb715684	-0.003682525
94	0xbe49879a	-0.19680634
95	0xbf1054d0	-0.56379414
96	0x3f51ab6d	0.819022
97	0x3eb91b7e	0.36153787
98	0xbf35e015	-0.7104505
99	0x3e167d91	0.14696337
100	0x3e719da4	0.23595291
101	0xbd38a826	-0.045082234
102	0x3eb0fe3c	0.34568965
103	0x3ea20686	0.31645602
104	0x3ed39341	0.41323283
105	0x3dfbe44c	0.122994035
106	0xbf0887e5	-0.5333236
107	0xbe9f39f9	-0.31098917
108	0xbea787b1	-0.32720712
109	0x3e112f03	0.1417809
110	0x3e6ba5c7	0.23012458
111	0x3e994c79	0.29941157
112	0x3e5cfca0	0.21580744
113	0xbcd33639	-0.025782691
114	0x3f433fd2	0.7626926
115	0xbf181edf	-0.59422106
116	0xbec542af	-0.38527438
117	0xbe521740	-0.20516682
118	0xbc6a2515	-0.014291068
119	0xbecab254	-0.3958918
120	0x3ed0072d	0.40630475
121	0xbe3e566a	-0.18587652
122	0xbe828887	-0.25494787
123	0xbe8cd48e	-0.27505916
124	0xbeaa8598	-0.3330505
125	0xbd9a8a97	-0.07545965
126	0xbe1e0518	-0.1543163
127	0x3e83b086	0.25720614
128	0xbe7f32e7	-0.24921761
129	0xbe767ca8	-0.2407099
130	0x3c3257bb	0.010885174
131	0x3d1cbbee	0.03826516
132	0x3e6d454c	0.23170966
133	0xbebb7f05	-0.36620346
134	0x3f48b695	0.784036
135	0x3f09417c	0.53615546
136	0xbe6044b6	-0.21901211
137	0xbcaff567	-0.021479322
138	0xbea812bc	-0.32826793
139	0xbf254619	-0.64560086
140	0xbeff4c3e	-0.49862856
141	0x3e0c366b	0.13692634
142	0x3eb62ca5	0.35580936
143	0x3e1175ee	0.14205143
144	0x3d0f4f58	0.034987777
145	0xbdedf754	-0.1161944
146	0xbd403d06	-0.046933196
147	0x3e8c9823	0.2745982
148	0xbd454749	-0.048163686
149	0x3dc14dff	0.09438705
150	0x3d365478	0.04451415
151	0x3db39539	0.08768696
152	0x3ef4fbd9	0.47848395
153	0x3eaf529d	0.34242716
154	0x3d9942b8	0.07483429
155	0xbec3c98b	-0.38239703
156	0x3ee97a7c	0.4560126
157	0xbce9f09f	-0.02855712
158	0xbed9b0ef	-0.42517802
159	0xbe3fa943	-0.18716912
160	0x3f159a3c	0.5843847
161	0xbdb9dbcd	-0.09075127
162	0x3cad5c2a	0.021162111
163	0xbf03e23d	-0.5151709
164	0x3ef91ef9	0.48656443
165	0x3e8853b4	0.2662636
166	0x3ed97686	0.4247324
167	0xbe82c68c	-0.25542104
168	0xbeec3ff8	-0.46142554
169	0x3e2ac729	0.16677536
170	0xbe79c39d	-0.24391027
171	0x3f10b67c	0.5652845
172	0xbf985020	-1.1899452
173	0xbf35b8a9	-0.70984894
174	0x3ecd06a0	0.40044117
175	0x3e80ad50	0.25132227
176	0xbef57b84	-0.47945797
177	0xbdb6ac5b	-0.08919593
178	0xbe8a9acc	-0.27071226
179	0xbf32c8f8	-0.69837904
180	0xbe06ff9a	-0.13183442
181	0x3d94f958	0.07274121
182	0x3e517409	0.2045442
183	0xbc8dcf21	-0.01731068
184	0xba5ac09f	-0.0008344743
185	0xbe6b1182	-0.22955897
186	0x3cbfa586	0.023394357
187	0x3d9288a3	0.07154968
188	0x3ba5777b	0.0050496436
189	0x3e5eb292	0.21747807
190	0x3ea45882	0.32098776
191	0x3e9ff6ac	0.31242883
192	0xbdc2b79a	-0.095076755
193	0xbe8fee37	-0.2811143
194	0xbe9c4a41	-0.305254
195	0x3e0c11ea	0.13678709
196	0x3e85ca89	0.26131085
197	0x3ee7f1ce	0.4530167
198	0x3e3c19af	0.18369173
199	0xbe6dae71	-0.23211075
200	0x3d618bbe	0.05506491
201	0xbe7b91b5	-0.24567302
202	0xbd8c94eb	-0.06864341
203	0x3e82460b	0.25444064
204	0x3f1a32d9	0.6023384
205	0x3e213a89	0.15744986
206	0xbe88acaf	-0.26694247
207	0xbdc3d439	-0.09561963
208	0x3e4efd20	0.20213747
209	0xbea94a08	-0.33064294
210	0x3e96077d	0.29302588
211	0x3edf8b3f	0.43660924
212	0x3ee83458	0.45352435
213	0x3e1e8d72	0.15483645
214	0x3e7bcd71	0.24590088
215	0x3e96e8ab	0.29474387
216	0xbea15c30	-0.31515646
217	0x3f052fb6	0.52025926
218	0xbeed9d3d	-0.46409026
219	0x3ca44210	0.020051032
220	0x3f6e349e	0.9304904
221	0xbdb44d0d	-0.08803759
222	0xbeaf38b6	-0.34222955
223	0xbf29febe	-0.6640433
224	0x3e970f13	0.29503688
225	0xbe904ba1	-0.281827
226	0x3e7937c5	0.2433768
227	0xbf988f87	-1.1918801
228	0x3efdb271	0.49550202
229	0xbf2fd273	-0.68680495
230	0xbd9da39f	-0.07697224
231	0xbd9f1292	-0.07767214
232	0xbe09563f	-0.13411807
233	0x3d06f467	0.032947924
234	0x3e8e76bd	0.27824965
235	0xbd181d92	-0.037137575
236	0xbecf4b68	-0.40487218
237	0xbead5b10	-0.33858538
238	0xbd283b9b	-0.04107247
239	0x3dba6f97	0.09103315
240	0x3d2da865	0.04239692
241	0xbc404060	-0.011734098
242	0xbf56fb4b	-0.8397719
243	0x3dc496f7	0.09599107
244	0xbe7de64d	-0.24794884
245	0xbed7291d	-0.42023554
246	0xbe85f9ac	-0.26167047
247	0x3ecb42bd	0.39699355
248	0xbed336c9	-0.41252735
249	0xbdc3122f	-0.095249526
250	0x3e4bcdb1	0.19902684
251	0xbe650ea6	-0.22368869
252	0xbebd9d25	-0.37033954
253	0xbe09da44	-0.13462168
254	0xbe361a83	-0.17783551
255	0x3e29724f	0.16547512

transformer_encoder.layers.1.self_attn.in_proj_bias f4 [57]
0	0xbdbc1722	-0.091841
1	0xbebba373	-0.3664814
2	0xbf1ed69a	-0.62046206
3	0x3e4d23fd	0.2003326
4	0xbde0d59a	-0.10978241
5	0x3ee7b218	0.45253062
6	0x3e05421d	0.13013501
7	0x3e37091d	0.1787457
8	0x3f43fa4e	0.7655381
9	0xbf0e32f8	-0.5554652
10	0xbeb36525	-0.35038105
11	0x3ec0fb5c	0.37691772
12	0xbec9a62c	-0.39384592
13	0xbf4843ca	-0.7822844
14	0x3f5954a0	0.8489475
15	0x3f1ae2f4	0.60502553
16	0xbf119caf	-0.56879705
17	0xbf3b1591	-0.7307978
18	0x3e07d959	0.13266505
19	0x3e478034	0.194825
20	0xbf6db413	-0.92852896
21	0x3f9cb5ef	1.2243022
22	0x3f06753c	0.52522635
23	0x3eee7cf5	0.4657971
24	0xbcdd41ad	-0.027008856
25	0x3e39c5a6	0.18141803
26	0xbde82b45	-0.11336378
27	0xbf51c18c	-0.81935954
28	0xbf363e45	-0.71188766
29	0x3efae960	0.49006176
30	0x3d923aa4	0.07140091
31	0xbe036762	-0.12832406
32	0xbe162006	-0.14660653
33	0xbc24981f	-0.010046034
34	0x3d10bf36	0.035338603
35	0x3d83d613	0.06437316
36	0x3e1494ef	0.14509939
37	0x3e807473	0.25088844
38	0xbe81853c	-0.25296962
39	0x3d5d96df	0.05409896
40	0xbe00fd97	-0.12596737
41	0xbe0d7f4e	-0.13818094
42	0xbdf7018d	-0.12060843
43	0x3e253dac	0.16136807
44	0x3cf44afb	0.02982091
45	0x3d827778	0.06370443
46	0x3e1885bb	0.14894764
47	0x3cd06155	0.025437037
48	0x3c84dd59	0.016218828
49	0xbcfa849e	-0.030580815
50	0xbdbad261	-0.09122158
51	0xbd4314a9	-0.047627125
52	0x3e50d3eb	0.2039334
53	0x3be67d54	0.0070339832
54	0x3d6f3923	0.0584041
55	0x3d75d538	0.060017794
56	0x3e2b5eab	0.16735332

transformer_encoder.layers.1.self_attn.out_proj.weight f4 [19, 19]
0	0x3d7d2216	0.061800085
1	0xbbfd4f8c	-0.00773043
2	0xbc32453a	-0.010880763
3	0xbd4f66c5	-0.050635118
4	0xbabefd08	-0.0014571259
5	0x3d15b722	0.036551602
6	0x3b5b4f95	0.0033464183
7	0x3cca736a	0.024713237
8	0xbc08a78f	-0.00834073
9	0xbd1945af	-0.03741997
10	0x3ce4ea4b	0.02794375
11	0x3c5f6c6c	0.01363669
12	0xbcc8687a	-0.02446388
13	0x3c670a3d	0.014101562
14	0x3bec1ccf	0.0072055827
15	0xbc7a5af1	-0.015280471
16	0xbcc554b4	-0.024088241
17	0x3cdf94be	0.027292605
18	0xbd22546a	-0.039631285
19	0xbe8fbb9d	-0.28072825
20	0xbe8b0cbf	-0.27158162
21	0x3e67abe2	0.22624162
22	0xbe08b565	-0.13350447
23	0x3dae0bfa	0.08498378
24	0xbd873107	-0.06601148
25	0x3d883742	0.066511646
26	0xbe518ac5	-0.20463093
27	0xbc574972	-0.013140069
28	0xbe7ae544	-0.2450152
29	0x3e3ce877	0.18448053
30	0xbd301508	-0.042988807
31	0xbe337411	-0.17524745
32	0xbda167ca	-0.07881124
33	0xbdd9fbb6	-0.10643713
34	0x3ea3dc5e	0.32004064
35	0x3f01afbc	0.50658774
36	0x3d842d06	0.064539
37	0xbeaaa2de	-0.33327383
38	0x3da70bf7	0.08156579
39	0xbdcc93af	-0.09989106
40	0x3d00a43f	0.031406637
41	0xbd2b12c8	-0.041765958
42	0x3c1f5413	0.009724635
43	0xbcb5f16e	-0.02220985
44	0xbde64cdb	-0.11245128
45	0x3a1beaca	0.0005947767
46	0xbcb9e51f	-0.022692261
47	0xbc0deb9e	-0.008662133
48	0x3b7072db	0.0036689553
49	0xbdad86aa	-0.08472951
50	0x3dacdf08	0.08440977
51	0xbd14b465	-0.03630485
52	0x3e6755d3	0.22591333
53	0x3cd5f7b2	0.026119087
54	0x3d787072	0.06065411
55	0x3d5e4a6d	0.054270197
56	0xbebbe5af	-0.36698672
57	0xbb8c9dd8	-0.0042912774
58	0x3cd2d10e	0.02573445
59	0xbcb0f772	-0.021602366
60	0x3dcb0578	0.099131525
61	0x3d3014b7	0.042988505
62	0xbd8e53a4	-0.06949547
63	0x3d09c73a	0.033637263
64	0xbd67fcf3	-0.056637716
65	0xbcc16621	-0.02360827
66	0xbcc9bc5b	-0.024625948
67	0x3c3569ae	0.011072559
68	0x3d752f93	0.059859823
69	0x3da0ed0d	0.07857714
70	0xbc93abea	-0.018026311
71	0xbe04fb9a	-0.12986603
72	0x3bf28d02	0.0074020633
73	0xbe204a9c	-0.15653461
74	0x3bea48b4	0.00714978
75	0x3d4c241a	0.049839117
76	0xbdbd01fc	-0.09228894
77	0xbd98608c	-0.0744029
78	0xbda615b8	-0.08109611
79	0x3e077b0a	0.1323053
80	0xbcf8bf00	-0.030364513
81	0x3d77d096	0.060501657
82	0x3d3d6359	0.046237323
83	0x3c36a9b9	0.0111488635
84	0xbccded87	-0.025137676
85	0x3c4fb57f	0.012677549
86	0xbc99f723	-0.018794602
87	0x3cc5f57b	0.024164906
88	0x3d39d6ce	0.04537087
89	0xbb2a3c50	-0.002597589
90	0xbca4487f	-0.0200541
91	0xbd8b5c91	-0.06804765
92	0x3e701283	0.23444562
93	0x3cdc2968	0.026875213
94	0x3e3e01fa	0.18555441
95	0xbda048a9	-0.07826359
96	0xbc3b8e66	-0.011447525
97	0x3ca5a4ae	0.020220127
98	0x3da9ce3c	0.08291289
99	0x3b95c4f0	0.004570596
100	0x3e638b2a	0.22221056
101	0x3ad2bd6b	0.001607818
102	0xbcc89f77	-0.024490101
103	0xbc712f21	-0.014720709
104	0x3d6e9b7e	0.058253758
105	0xbc9c31b4	-0.019066669
106	0x3d8b2111	0.06793416
107	0x3d3992cd	0.045306016
108	0x3d8e4064	0.06945875
109	0xbb953f58	-0.0045546703
110	0xbd814b56	-0.06313197
111	0xbd41c2f8	-0.047305077
112	0x3cf54466	0.029939841
113	0x3e3ad4f8	0.18245304
114	0x3d7f8eab	0.06239192
115	0xbd7a4abe	-0.061106436
116	0x3cf71dcf	0.030165581
117	0x3ccb6958	0.024830505
118	0xbd1943cb	-0.037418168
119	0xbdff8ce3	-0.12478044
120	0x3bdc70dc	0.006727321
121	0xbdb3929d	-0.08768199
122	0x3e004ae9	0.12528576
123	0x3b7b31b4	0.0038329186
124	0xbd3c5c0c	-0.04598622
125	0xbdcdef1c	-0.10055372
126	0x3e054e39	0.13018121
127	0x3cbec609	0.02328779
128	0xbe206841	-0.1566477
129	0x3d61f829	0.055168305
130	0xbbb55dec	-0.005534878
131	0xbc52695a	-0.012842501
132	0xbda76ce0	-0.08175063
133	0x3c61896b	0.013765673
134	0x3cb9711b	0.02263694
135	0xbb82fcb3	-0.0039974093
136	0x3e127766	0.1430336
137	0x3d78a57a	0.060704686
138	0xbe4a59fb	-0.19760887
139	0x3c35b650	0.01109083
140	0x3d6f0fec	0.058364794
141	0xbd523363	-0.051318537
142	0xbc6a558b	-0.014302622
143	0xbc5c1b83	-0.013434294
144	0x3d9300a8	0.071778595
145	0x3aacbbfd	0.0013178583
146	0x3d40ba0d	0.04705243
147	0xbd6df692	-0.058096476
148	0xbcc8a435	-0.024492363
149	0xbe1380de	-0.14404628
150	0x3d5263eb	0.05136482
151	0x3c4b92c8	0.012425132
152	0xbda0cfba	-0.07852121
153	0x3d3a207f	0.045441147
154	0xbc0966d5	-0.0083863335
155	0x3e047a79	0.12937345
156	0x3cd46e8f	0.025931625
157	0x3d957dc1	0.07299376
158	0x3e3a0618	0.18166387
159	0x3e30f03d	0.17279144
160	0x3d3557bd	0.044273127
161	0xbcf5c558	-0.030001327
162	0xbddaa44f	-0.106758706
163	0x3d190785	0.037360687
164	0xbc85d7e9	-0.016338306
165	0xbdaba2ac	-0.083806366
166	0xbc9a2fcd	-0.018821621
167	0x3dba8d5a	0.09108992
168	0x3ce102f1	0.027467223
169	0xbda87d89	-0.08227069
170	0x3e1ae982	0.15128139
171	0xbaf1a044	-0.0018434604
172	0xbd6d0025	-0.057861466
173	0x3db4e48c	0.08832654
174	0x3ace9584	0.0015761112
175	0x3d453c3c	0.048153147
176	0x3d09e9f9	0.0336704
177	0xbdbd197f	-0.092333786
178	0x3c1da085	0.00962079
179	0xbc6d473f	-0.014482318
180	0x3ca724e1	0.020403327
181	0x3cf85fe1	0.030319156
182	0x3cf48894	0.029850282
183	0xbdc4699d	-0.09590457
184	0x3cd411de	0.025887426
185	0xbdaec2c4	-0.08533242
186	0xbce6dc5c	-0.028181247
187	0x3e2aeb39	0.16691293
188	0x3d08aafb	0.033366185
189	0x3cf8c5cd	0.030367756
190	0xbcc5931a	-0.024117995
191	0xbba59965	-0.0050536864
192	0xbd333508	-0.043751746
193	0xbd6d214b	-0.05789308
194	0xbcf97912	-0.030453239
195	0x3c0984c5	0.008393471
196	0xbd0cd267	-0.034380343
197	0xbd99a0e1	-0.07501388
198	0xbd1443ae	-0.036197357
199	0x3d5fac0c	0.054607436
200	0xbd977360	-0.07395053
201	0xbda7ef45	-0.08199934
202	0xbe05fdea	-0.13085142
203	0x3e63a7af	0.22231935
204	0x3cd38e45	0.025824675
205	0xbd2d4b38	-0.042308062
206	0x3d5ad31e	0.053423993
207	0xbbf1401a	-0.007362378
208	0xbd9f9f95	-0.0779411
209	0xbe3f2bd6	-0.18669066
210	0x3bc0f92d	0.005889079
211	0xbd2ab30d	-0.041674662
212	0x3d137770	0.036002576
213	0x3d9af59f	0.0756638
214	0x3cde22e9	0.027116256
215	0xbcae2d21	-0.021261754
216	0xbe2b4af6	-0.16727814
217	0x3bfc9990	0.0077087358
218	0xbcec5c90	-0.028852731
219	0xbcbadbf4	-0.02280996
220	0x3dbb17b0	0.091353774
221	0x3ceeddfd	0.029158587
222	0xbd611e97	-0.054960813
223	0xbd0e4480	-0.034733295
224	0xbca42b0d	-0.02004006
225	0x3df0b5cc	0.11753425
226	0xbd6db448	-0.058033258
227	0x3e04370c	0.12911624
228	0xbe0a0f1a	-0.13482323
229	0xbc9caeda	-0.019126344
230	0xbdfc6ed2	-0.12325825
231	0x3e3c4b83	0.1838818
232	0x3d2f8ef4	0.04286094
233	0xbdd6e45e	-0.10492776
234	0x3d0908b1	0.033455554
235	0xbdd2e7c8	-0.10298115
236	0x3dbd4a2f	0.09242665
237	0x3c9690c4	0.018379577
238	0xbcd65965	-0.026165674
239	0xbe0f20ae	-0.1397731
240	0xbd84bacd	-0.06480942
241	0xbe16c7ac	-0.14724606
242	0xbdd4968b	-0.10380276
243	0xbd63204a	-0.055450715
244	0x3e64441a	0.22291604
245	0x3db0a8a9	0.08625919
246	0x3ea5c8fe	0.32379907
247	0x3e51b62c	0.2047965
248	0xbcf08a25	-0.029362747
249	0xbca0c7ed	-0.019626582
250	0xbdb855c1	-0.09000731
251	0xbc0953a4	-0.008381758
252	0xbe1854a4	-0.14876038
253	0x3e266b01	0.16251756
254	0x3becbdce	0.007224775
255	0xbce9d958	-0.02854602

transformer_encoder.layers.1.self_attn.out_proj.bias f4 [19]
0	0xbc73f507	-0.014889962
1	0xbe1bd3f3	-0.15217571
2	0xbd7a1620	-0.061056256
3	0x3d12b541	0.03581739
4	0xbc862faa	-0.01638015
5	0x3ce44282	0.027863745
6	0xbcc33611	-0.023829492
7	0x3ca96b10	0.020680934
8	0x3bbf15a3	0.0058314367
9	0xbcc8b944	-0.024502404
10	0xbc4e17c2	-0.0125789065
11	0xb92d56eb	-0.00016530945
12	0x3d58ce58	0.05293116
13	0x3b8c8159	0.0042878804
14	0x3c02510e	0.007953895
15	0x3c784548	0.015153237
16	0xbc1d5452	-0.009602623
17	0xbcfa3009	-0.030540483
18	0x3d849031	0.06472815
